Single layer Working model/mlp_with_custom_layer.pt (torch, 943444 bytes, 6 tensors)

layers.0.weight f4 [784, 256]
00000000: fd68 543c f5cd 5dbc 6be9 81bb 3b20 743b
00000010: 24ed 3d3b a879 823c 4294 72bb bca6 c23b
00000020: c9f2 debb da64 1f3c 8c31 6d3c 293a c537
00000030: 0663 043c bdf6 323a 443a b13a 478c cf3a
00000040: 15e7 773c 9fa0 9ebc 07bd 56bc 8618 09bb
00000050: a40f df3b 9408 04bc bd09 88ba d5c2 66bc
00000060: 9701 583c 9911 2dbc d94f 1fba 1433 86bc
00000070: a7ba d2bb c5cd 3d3b 7ddb 4e3b e22a 003c
00000080: 6d0c 01bc 7003 533c 8b46 0abc 88e7 a0bb
00000090: 8eb0 9abb 6d2d 9e3c c70f 883a 38bc e9bc
000000a0: 5904 72bb b3f3 313c b578 5d3c 2269 d3bb
000000b0: 7315 d1b9 62b8 b7bc 3672 acbb 740a 9fbb
000000c0: 4fe0 5c3b 1897 23bc 0270 54bb d732 beb8
000000d0: 07a5 92ba ea28 0bbc 0ed7 4abc 699b 0cbc
000000e0: 9497 f93b 5741 09bc 1738 863b 9009 dbbb
000000f0: 6054 1fbb 6c2c f83b 45d9 a93b c069 efb9
00000100: 728b 46b8 d190 8a3c 3edf 2abc 5cfa 73b9
00000110: 6843 0a3c 89c6 40bc 0536 30bc 092a 013b
00000120: 2c72 233c c9ad 97bc 742c 18bb a7de 8abc
00000130: 5d7b 8ebb dd66 193b f2b1 44bc 88e2 03b9
00000140: 938f 59bb fb88 78bc cd47 47ba 09d9 853c
00000150: 3376 51bc 82bb 1fba 5dc2 7d3c b02e e4bb
00000160: eeea 3a3c b621 983b 19eb 5fbc 09df 7e3b
00000170: 4f1a 89bc e54a 49b9 3dc5 953c 6c1d 503b
00000180: 7ca4 953c cfed 683b f638 9b3c 531c f93a
00000190: 0203 45bb 16c0 233c e7ff 363a 1200 79bb
000001a0: 2765 1d3c 6705 3b3a 1c6f 913b c663 6c3c
000001b0: d891 e83b 7d98 993b 0d98 3dbc 5ddb 69bc
000001c0: 7a33 91bc 3ffb 0f3b d724 df3b 6ec9 a9bb
000001d0: 54ec a8bb 13e9 2abb 20e6 673a 8a6b fb3b
000001e0: 6f59 963a 7859 313c 0488 19bb 4258 ce3b
000001f0: b4d3 9b3b 12d0 8b3c b758 5c3b f0bf e23b
00000200: 4340 003c c28e b33b cb95 77ba 29a9 c13b
00000210: f2d8 8ebc 7476 96b8 9460 873b 029b 09bc
00000220: 40e7 573c cf7e 34bc 1754 d03b eaf1 c2bb
00000230: 817a a63a 0d7b bc3b e644 583b 42da 6bb8
00000240: cdf1 2d3c 18cf 5cbc 4171 483b dcd7 a13c
00000250: 3850 cbba f9a3 40bc c90c 45bc 62c4 133c
00000260: 84f6 263a df7d 8a3b dd2d 37bb 6a46 a03c
00000270: 2511 2b3b 460b 743c c0a2 4b3b aa6a d33a
00000280: bdec 9abb d8d4 33bc 353e da3c 7177 87b9
00000290: f67f 06ba 8d5f 99bb a508 c7bb 987e b13c
000002a0: b286 c7ba 050f 6b3b 65d0 ef3b 8e3f 5f3c
000002b0: 421c 853c d076 7e3b aad7 4d3c 7b01 f03b
000002c0: 67a9 b23b 98d5 573b c453 a73b bf81 0abb
000002d0: 387a 49bb 27bc 82bb b26a 10bc d978 723b
000002e0: 3eae f2bb e50d 2eba cba9 13bc 72b9 adbb
000002f0: 2fca b5bb 8b4a 203c 96eb 89b8 58d6 d13b
00000300: 1360 2a3c f63a a7ba 123b 3bbb 5d94 263c
00000310: 5ed8 f43b e263 e73b f944 883c 64eb c5bb
00000320: 9724 0ebb 0be9 09bb 0948 e23b a775 fabb
00000330: 417d bdbb eff8 7dbc b7eb 3f3c fe84 21bc
00000340: 7e2b 46bc d929 3d3c 4d2e 23bc 2614 d1bb
00000350: 2641 863c 0528 5bbc 3390 c3bb 08f3 a23b
00000360: 9dc6 923c 94c4 5d3c 7c5a 54bc e7a9 b43b
00000370: 0a56 15bb 7284 05bb 0ff6 85bb e4c8 dbbb
00000380: e61d 87bc 4d69 8f37 89d1 9fbb e2f0 933c
00000390: fc1a a9bb 1016 92bc 26df 18bb 05f2 6ebc
000003a0: d082 a03b ceaf afbb f03c d83c 26b5 9bbb
000003b0: caa4 9dbc 96a5 293c 0236 8aba 70be 1dbc
000003c0: 97a9 d2ba 4f8d 073c 5b50 513a 40b5 d4bc
000003d0: cb76 4d3b 39d0 3b3c 6e70 6c3b 7e98 be3b
000003e0: 10d5 38bb 6b96 803c 9630 a2bb 75a8 c4bb
000003f0: d456 283c 6470 4ebb 248f b9bb 5f5c 8bbb
0.012964484 -0.0135378735 -0.003964593 0.0037250656 0.0028980458 0.01592715 -0.0037014638 0.0059402864
-0.0068038446 0.009728635 0.014477145 2.3511313e-05 0.00808025 0.0006826928 0.0013521393 0.0015834653
0.015130778 -0.0193637 -0.013106591 -0.0020919158 0.0068072844 -0.008058686 -0.0010378879 -0.0140845375
0.013183973 -0.010563278 -0.0006077267 -0.016381778 -0.006430942 0.002896176 0.003156393 0.007822724
-0.007876498 0.0128792375 -0.00843967 -0.004910413 -0.004720754 0.01930877 0.0010380679 -0.028532133
-0.003692886 0.010861325 0.013517548 -0.006451742 -0.00039879567 -0.022426788 -0.0052626384 -0.004853541
0.0033703034 -0.009984754 -0.0032415395 -9.069376e-05 -0.0011188098 -0.008493641 -0.012380375 -0.008581975
0.0076169465 -0.008377395 0.004096042 -0.0066844895 -0.0024311766 0.007573655 0.0051833712 -0.00045664422
-4.7336747e-05 0.016914757 -0.010429202 -0.00023267552 0.008438922 -0.0117660845 -0.010755067 0.0019708893
0.009975951 -0.018515484 -0.0023219856 -0.016951872 -0.004348202 0.0023407259 -0.012005316 -0.00012577523
-0.003319715 -0.015169377 -0.00076019467 0.016338842 -0.012784529 -0.00060933095 0.015488234 -0.0069635734
0.011408551 0.0046426905 -0.0136668915 0.0038890264 -0.016736178 -0.00019196754 0.018282527 0.0031755818
0.018266909 0.0035542136 0.01894806 0.0019005634 -0.0030061607 0.009994527 0.00069808814 -0.0037994427
0.009606636 0.0007134289 0.004438294 0.014428085 0.007097464 0.0046873675 -0.011571896 -0.014273492
-0.017724741 0.0021969823 0.0068098116 -0.005181483 -0.0051551256 -0.0026078864 0.0008846242 0.0076727318
0.0011470745 0.010824554 -0.002342702 0.0062971422 0.0047554616 0.01706699 0.0033622214 0.0069198534
0.007827821 0.0054796645 -0.0009444623 0.005910058 -0.017437432 -7.174621e-05 0.004131386 -0.008398773
0.013177693 -0.011016562 0.0063576805 -0.0059492486 0.0012701304 0.0057519735 0.003300005 -5.6231635e-05
0.010616732 -0.013477109 0.0030585083 0.01975625 -0.0015511578 -0.011757844 -0.012026974 0.009018989
0.0006369131 0.004226431 -0.002795092 0.019564826 0.0026102748 0.014895266 0.0031072348 0.0016129811
-0.0047279284 -0.010976039 0.02664099 -0.00025838197 -0.0005130762 -0.00468058 -0.0060740286 0.02166681
-0.0015222637 0.0035867107 0.0073185437 0.013625992 0.016248826 0.0038828142 0.012563625 0.0073243952
0.0054523232 0.0032933708 0.005106421 -0.0021134464 -0.0030743014 -0.0039897147 -0.008814501 0.00369983
-0.007406025 -0.00066396437 -0.00901265 -0.005301648 -0.005547784 0.009783397 -6.5765504e-05 0.0064037256
0.010398882 -0.0012758661 -0.0028569144 0.0101672085 0.007472082 0.0070614675 0.016634451 -0.0060400236
-0.002168929 -0.0021043445 0.00690556 -0.00764342 -0.0057827537 -0.015501245 0.011713914 -0.009858368
-0.01209533 0.011545622 -0.009959769 -0.0063805757 0.016388487 -0.013376241 -0.0059681176 0.0049728192
0.017916972 0.013535637 -0.012961026 0.005513418 -0.002278688 -0.0020373133 -0.0040881704 -0.0067072976
-0.016493749 1.7095963e-05 -0.0048772735 0.018059198 -0.0051606875 -0.017832786 -0.0023326366 -0.014584069
0.0048984066 -0.0053615337 0.026396245 -0.004751819 -0.019243617 0.01035442 -0.001054466 -0.009627923
-0.001607227 0.008273437 0.0007984691 -0.025965333 0.0031351324 0.011463218 0.0036077756 0.0058165183
-0.0028203167 0.015696725 -0.0049496396 -0.006001527 0.010274608 -0.0031500096 -0.0056628156 -0.004252955

layers.0.bias f4 [256]
00000000: 3b06 fe3c ed99 913d ddc7 0f3d b44d b23c
00000010: 2edf a43c f90c 84bc 2c5b 7c3d 1619 3bbd
00000020: 5b32 11bc 064e 953d b258 123d 21c7 c4bb
00000030: efd3 a13c 3f40 433d e7d3 47bc 64a5 6ebd
00000040: 99c7 20bd 27f6 97bd 092b 1cbb 3784 033d
00000050: 018a 81bd 3ef0 aa3d efa9 c63c e4c5 c4bb
00000060: 8924 ef3c b219 da3c 1db0 25bd e887 e53c
00000070: 2459 763d 80a7 c8bb fdee f0bb 09ce e13c
00000080: 8432 453c 19e9 973d 0d64 02bc 0071 a63d
00000090: 472b 26bd 06ae 2a39 2425 7f3d 4a4b c1bb
000000a0: f607 fe3d dc16 513d 320f 5ebc 29ca 05bc
000000b0: fa5c 8f3c 939b 273d f27e e73c dc01 3f3c
000000c0: 7a5a 00bc c8dd 003d 27f1 dd3c f0a1 873d
000000d0: 25ac b4bc b427 5b3d aeca 223d a508 23bd
000000e0: 0dc2 91bd 90dc e53c d936 a73c e8c8 c4bb
000000f0: c1c1 0e3d 7621 083d 2b1f ac3d c351 03bd
00000100: 33b5 f0bc 69fe bbbd 56fa 9c3d f02e 00bd
00000110: e552 6ebb 2de3 803c ff7a aebc e511 013d
00000120: 7717 a5bd f9f5 343d ff8f 8fbd 9897 e4bb
00000130: c4ef c8bc 3094 533d c637 f7bb 904e 2cbc
00000140: c596 3dbd 1337 d93c 1f2b 903d dfad 9a3d
00000150: fdb0 0dbc 7060 053c db22 b6bb 34c9 6dbd
00000160: 8f3d 4fbc 24d3 0f3e b3e5 863d 31ef bb3d
00000170: 41ac 0f3e 28e1 4b3d 1291 003d 3646 1e3d
00000180: f229 a4bc 9ecd f8bb ec3d b239 3845 283d
00000190: 830a e8bc 6b73 c93d a388 6e3c 02c2 1c3d
000001a0: f5c7 133d c23f c93c 8deb da3b 02ab c3bb
000001b0: abc9 283d 8059 103d 6e1c ca3c 1061 0f3d
000001c0: 7d45 da3d 5cdf db3b 589a 8a3d a581 873b
000001d0: e162 223d 9d44 9b3d cff1 0b3c f7b5 f33d
000001e0: 5ea3 1c3d a06f 00bc a600 06bd fcde fe3a
000001f0: 48ca 4f3d 4360 d0bc 2edf debb 42d0 2d3d
00000200: c52c e9ba fa52 ad3d 7bcd 1bba 719c 963d
00000210: bcdf 0e3d d733 283d 1e83 533d 0cc5 8a3d
00000220: b541 ac3c 0139 06bc 19c5 91bc f3c8 c4bb
00000230: 0386 4b3c 5ccf 25bd 6383 e5bc df39 1ebd
00000240: 9ff6 913d 9817 c13d b55a abbb 6f74 c63c
00000250: 26f9 abbc 60c3 9b3d 79e1 1b3d 04d8 d83d
00000260: 2ff4 80bd 0b4b b63d d307 ebbb 65a9 08bc
00000270: 28b6 883c 96c6 573d 9c5e e13d 179e bfbb
00000280: 15f4 713c f718 493d f36c a93d 60bc 183d
00000290: f8b3 be3b ab34 84bc 0fc0 70bd 66ed 653d
000002a0: 8db8 f73c aba0 9f3c 1e09 d739 616d 993d
000002b0: de95 033c dafc b93d 12d1 07bd 5a9e 3bbc
000002c0: e5f9 143d 65e6 0f3b c139 86bc b192 1e3c
000002d0: d214 81bc b675 143d 1aef c43c a4b0 763d
000002e0: 8389 2c3d c357 113e d937 17bc 1462 583a
000002f0: 09ce 433d c348 b2ba e895 47bd 5f1c 8f3d
00000300: 1836 a63d cce4 a93c 748f 143d 65c8 c4bb
00000310: e071 6d3c 6e69 713b 3bd7 5f3d ba08 a2bc
00000320: 4d1b 513c ba01 1c3d e06d e1bb e1c7 d0bb
00000330: 17c7 eebb 0fa4 e03c 7387 e43d 7811 caba
00000340: 0bb0 a33c fd6c cc3d 5523 4d3d f420 40bd
00000350: e8d2 983d 710f 343d 79ed 9bbd e366 af3d
00000360: 5bd9 a03c 772b 903c 78fb 053e b457 9b3d
00000370: a51b cdbb 3051 a2bc 8d58 843c 5f0e c5bc
00000380: b9c8 c4bb 5dc7 c4bb 8934 80bc 226e d8bc
00000390: e8e8 213c aa32 073d 2b67 773d 7beb 8f3c
000003a0: 71de 3e3c f357 3e3c f87c 813d cefe e53c
000003b0: 6b6c 51bd be7c 05bd 8100 c63b 6a64 dbbb
000003c0: 85fb 143d ec9e 773d 8fab 333d fdc0 f53c
000003d0: 180a da3c ea66 9c3c 7697 ae3c 3287 113d
000003e0: 827f fc3a a5c9 4ebb 93c8 e4bb 08d1 56bd
000003f0: 454f 2c3c 36fb eebb f969 dbbb 8fc2 9c3c
0.03100883 0.07109437 0.035102714 0.021765567 0.020125952 -0.016119467 0.061610386 -0.04567822
-0.008862103 0.072902724 0.035729118 -0.0060051833 0.019754378 0.04766869 -0.012196518 -0.058263198
-0.03925285 -0.07419997 -0.0023829362 0.03210851 -0.0632515 0.08346604 0.024250953 -0.0060050357
0.029192226 0.02662358 -0.040451158 0.028018907 0.060143605 -0.006123483 -0.0073527084 0.027564066
0.01203597 0.07417507 -0.007958424 0.08127022 -0.040568616 0.00016277292 0.06229128 -0.0058988677
0.12403862 0.05104719 -0.0135534275 -0.0081658745 0.01750039 0.04091985 0.028258774 0.011658158
-0.007834071 0.031461507 0.02709253 0.06622684 -0.022054741 0.05350466 0.03974407 -0.039803166
-0.071170904 0.028059274 0.020411896 -0.006005395 0.034852747 0.033235036 0.08404382 -0.032060396
-0.029383278 -0.09179384 0.07664935 -0.031294763 -0.0036365327 0.015733326 -0.021298883 0.031511206
-0.08061116 0.04417989 -0.07009887 -0.006976079 -0.024528392 0.051654994 -0.0075444905 -0.010516778
-0.046286363 0.02651552 0.07039475 0.075526945 -0.008648154 0.008140668 -0.0055583543 -0.05805321
-0.012648954 0.14045388 0.065867804 0.091764815 0.14030553 0.049775273 0.03138835 0.038641177
-0.020039532 -0.007592871 0.0003399694 0.041081637 -0.028325325 0.09836467 0.014558944 0.038270958
0.036079366 0.024566535 0.006680912 -0.0059713135 0.04120795 0.035241604 0.02467176 0.035004675
0.10657785 0.006709976 0.0676772 0.004135328 0.03964508 0.07581446 0.008541538 0.118999414
0.038241737 -0.0078391135 -0.032715462 0.0019445117 0.05073002 -0.025436526 -0.0068015074 0.04243494
-0.0017789832 0.08463092 -0.00059434 0.073540576 0.03488134 0.041065063 0.051638715 0.06775865
0.021027425 -0.008192302 -0.017794179 -0.0060054003 0.012422088 -0.040480956 -0.028016752 -0.03862941
0.07127117 0.09428328 -0.005229319 0.024225442 -0.020992827 0.07605624 0.038056824 0.10588077
-0.06296574 0.08901032 -0.0071725636 -0.008341168 0.016688421 0.05267962 0.110043734 -0.005847703
0.014767666 0.049096074 0.082727335 0.037289023 0.005819794 -0.016138395 -0.05877691 0.056134604
0.030239368 0.019485792 0.00041014788 0.074915655 0.008031337 0.09081431 -0.03315837 -0.011451328
0.03637113 0.0021957394 -0.016384961 0.009678529 -0.015756998 0.03624507 0.024039794 0.06022705
0.04212333 0.14193635 -0.009229624 0.0008254361 0.047803912 -0.0013602007 -0.048726946 0.06987833
0.08115786 0.020738982 0.03626962 -0.006005334 0.014492482 0.0036836523 0.05464862 -0.019779552
0.012762857 0.038087584 -0.006879553 -0.0063714837 -0.007286917 0.02742198 0.111586474 -0.0015416583
0.019981405 0.09981725 0.050082523 -0.046906427 0.07462102 0.04396004 -0.07613654 0.08564546
0.019634893 0.01759885 0.13084209 0.075850874 -0.006259399 -0.019814104 0.016155506 -0.024054704
-0.0060053733 -0.0060052113 -0.01565005 -0.026419703 0.009882189 0.0330073 0.060401123 0.01756834
0.011649714 0.011617648 0.06322664 0.028075602 -0.051128786 -0.032589667 0.0060425405 -0.00669532
0.03637268 0.060454294 0.043864783 0.02999925 0.026616141 0.019092042 0.021312457 0.035529323
0.0019264075 -0.0031553295 -0.006981918 -0.05244544 0.010516946 -0.0072931303 -0.0066959825 0.019135742

layers.2.weight f4 [128, 256]
00000000: 2ca4 353d c249 2fbe cf9c 2e3d 5d0a f6bd
00000010: dacf 093d 32ee b5bd 8006 0c3c 56ac 813d
00000020: 9bec f33c 8d61 0dbe cd0f 493d 72f6 653d
00000030: fd58 81bb c403 afbd 6a3a 58be 7a67 0f3e
00000040: 4b90 50bd b03c 553e e20a 8cbd fe54 b63d
00000050: 80ec 0e3e 58b5 fcbd 916f 7abc 2caf aab9
00000060: 9281 a1bb 937a 8a3e f088 283d 0783 3cbd
00000070: e00d 40bc 5454 303e 446f 793d ce56 a53d
00000080: e2e7 2bbd 195f 8c3d e188 0bbd 5d47 12be
00000090: c83d 633c 42e2 923d ff92 3dbd 80d6 72bc
000000a0: 3d01 8abe 20f7 0abe 07e0 923c 4513 3d3d
000000b0: c7fe 00bd aca7 02be ef5c d53d 47b8 b53d
000000c0: d53a 553d c258 4bbe 4b23 2cbd 2bac 9b3d
000000d0: 8639 25bd 9c3d 513e a7df 513d 582a 9d3d
000000e0: 6a5a 183e f61a 59be 4f22 a13d e615 9fbc
000000f0: 28a6 8f3d e9c1 213e 6c95 073c e2f2 bf3d
00000100: a403 dabd 8b2a 133d c541 99bd 4d50 da3c
00000110: 0cdc a53d d494 893d 9d22 70be a3de 453d
00000120: 4213 603d f78a dd3c ba86 563d 14c6 c7bc
00000130: 0940 71bd 40db 58be 56ef 42bd bd26 dd3c
00000140: c3d6 fabd 0d0b debd aa12 c23d d85d f63d
00000150: 6274 2bbd 2fdd bb3d f0d0 0fbc 9c9a 90be
00000160: 1cd8 afbb 9200 98bd a271 57bd 9cfe 963c
00000170: 2ca7 1b3c 5479 a5bd 4a73 083d ff99 91bb
00000180: b132 523d c777 99bc 6d5d 1cbd 7e2e 2a3d
00000190: f9bb 7e3b 4b98 8a3c 832d 14be acae c73d
000001a0: e349 f3bd a859 413d 84ad 7fbc 5076 293d
000001b0: 9591 1ebe 04df b33d 4f72 0f3d 4fab 373c
000001c0: 61e7 1f3a f2a5 bcbc 72a9 13bd 7a84 bd3d
000001d0: 6f45 c33d 914a 6c3d 5e67 663c 974c 893c
000001e0: 3e0c a2bd da42 0abc a3dc d83c 8b47 acbd
000001f0: 9d23 023e 6a80 cd3d 2adf f9bb 5007 513d
00000200: cb55 2e3d 1dc6 a33d 0102 b13c 7711 743d
00000210: 7e24 7dbe 30e7 413d 2266 bd3a 8c4b 1d3d
00000220: 80a5 c33c d1cd 183c f3fc f7bd db49 ae3c
00000230: 1426 213d 6cea 37bc a310 433e d014 27be
00000240: dd09 cb3c 0b8d f7bb 6388 823d 210a b23d
00000250: a62e f0bc d2ee a73c c7f0 943d ba14 9e3c
00000260: 28ae 65bd 324a 23be b30a d73c 687e d63c
00000270: 3a02 c53d e8ff d93b ff65 98ba eb7f 40bd
00000280: b4d1 813d 6fcf 39bd 3b21 993c 13f0 743d
00000290: f50b 28bc 2288 c93d 934d f6bd 580c 5cbc
000002a0: b83b c03c f3f2 d73d 4aea ac3d c2ee 17bd
000002b0: 9913 913d ac9a b93d 1d29 933d 2e1d 443d
000002c0: 0cb8 b63b 94ec 9cbc 555b 8ebe bc3c a43d
000002d0: cfa3 b63d 9f44 6fbd d402 db3d 1687 05bd
000002e0: 0516 463d 9bbb 18be 1875 b7bd b21b 193e
000002f0: 2ad8 a6bc f644 c3bd 512f 3fbd 2886 d0bc
00000300: 1daa 053e 2b3d 8abd 95d4 fb3d 75cb 753d
00000310: 641f a63d 130c f53d 73b2 81bc e4b5 0bbd
00000320: 6513 4d3d 83b9 ee3c 156f da3c ee2c ad3d
00000330: 92ac 04ba a7be 08bd 061c 8b3d 8189 e839
00000340: 643f 13bd 912c cdbd 48d0 6a3d 9de2 0abd
00000350: d4ea 8ebc 0585 803d 78d5 953b b322 5e3b
00000360: 334b cbbc 1f56 edbc b508 ee3c ac43 51bd
00000370: 0369 383d 9780 23ba f9d5 e03d f32e ba3d
00000380: 4af3 6a3c 062b bd3b b20b ecbc ab12 c63d
00000390: 65b3 87bb 27a1 ccbd 8a70 74bc 086a f13a
000003a0: f28c 473c e572 0c3d 185e 043d 444d 353c
000003b0: 3821 adbd 3a05 f83d 9021 8c3d c1a7 dfbb
000003c0: c886 51bd 047d 193d dfce 6e3d f090 8a3c
000003d0: 7723 723d 9d88 073d 2afe d83d 5bda 88bc
000003e0: a941 f93d 051f 28be 97d9 4c3d ad1d 903b
000003f0: 6858 4d3d d89e 1f3d 3d31 0f3e 05af 073e
0.04434602 -0.1711798 0.042630013 -0.120136954 0.03364549 -0.08883323 0.008546472 0.063316986
0.029775908 -0.13806744 0.049087334 0.05614323 -0.003947376 -0.0854564 -0.21116033 0.14004317
-0.05091886 0.20823932 -0.06838013 0.0890293 0.13957405 -0.12339276 -0.015285389 -0.0003255544
-0.004928776 0.27046642 0.04114622 -0.046023395 -0.011722058 0.17219669 0.060897127 0.08073197
-0.041969188 0.06854076 -0.034066085 -0.14285035 0.01386971 0.071720615 -0.046282765 -0.014821649
-0.2695407 -0.13570833 0.01792909 0.046160955 -0.031492975 -0.12759274 0.10418116 0.08873039
0.05205806 -0.19858077 -0.042025845 0.07601198 -0.04033806 0.20433658 0.051238682 0.07674092
0.1487824 -0.21201691 0.07867872 -0.019419622 0.07014114 0.15796627 0.008275371 0.09372498
-0.10645226 0.035929244 -0.07483248 0.026649619 0.08098611 0.0671784 -0.23450704 0.048308026
0.054705866 0.027043803 0.05237458 -0.024386443 -0.05889896 -0.21177387 -0.04759153 0.02699601
-0.12247994 -0.108419515 0.09476216 0.12029618 -0.04185904 0.09173047 -0.008777842 -0.28242958
-0.0053663384 -0.07421984 -0.052598603 0.018431954 0.009500306 -0.08079782 0.033313073 -0.0044434066
0.051317874 -0.018733872 -0.038175035 0.041548245 0.0038869365 0.016918322 -0.14470486 0.09750113
-0.11879327 0.047204643 -0.015605334 0.041372597 -0.15485223 0.08782771 0.035021123 0.011210277
0.0006099847 -0.023028348 -0.036050268 0.092537835 0.09534728 0.0576883 0.014062731 0.016760154
-0.07912491 -0.00843879 0.026472395 -0.08412083 0.12708898 0.10034259 -0.00762548 0.051032364
0.042562287 0.079967715 0.0216074 0.05958697 -0.24720952 0.04733962 0.0014449994 0.038402125
0.023882627 0.009326414 -0.12108793 0.021275451 0.039342955 -0.011225324 0.19049315 -0.16316533
0.024784977 -0.0075546554 0.0637367 0.08693338 -0.029319119 0.02049962 0.07272487 0.019296993
-0.05607429 -0.15946272 0.026250219 0.026183322 0.09619565 0.006652821 -0.0011627077 -0.046996992
0.06338826 -0.04536384 0.018692603 0.059799265 -0.010256757 0.098404184 -0.12026515 -0.013430677
0.023465976 0.10544386 0.084431246 -0.03709293 0.07083816 0.090627044 0.07185576 0.04787939
0.0055761393 -0.019155778 -0.27804056 0.08019397 0.08917963 -0.05841505 0.10693899 -0.03259953
0.048360843 -0.14915316 -0.08957881 0.14951971 -0.020366747 -0.09534638 -0.046675984 -0.025454596
0.13053174 -0.06749948 0.12296406 0.060008485 0.08111456 0.119651936 -0.015832162 -0.03410901
0.050067324 0.029141193 0.026664296 0.08455835 -0.00050611154 -0.033384945 0.067924544 0.00044352937
-0.035949126 -0.10018266 0.05732754 -0.03390752 -0.01744596 0.062753715 0.0045725666 0.0033895194
-0.024816131 -0.02897173 0.029056886 -0.051089928 0.045022022 -0.0006237118 0.10978312 0.09090986
0.014340231 0.005772951 -0.02881417 0.096715294 -0.0041412585 -0.09991675 -0.0149194095 0.0018418441
0.0121796 0.03428926 0.032316297 0.011065785 -0.084536016 0.12110372 0.06842339 -0.0068254177
-0.051153928 0.03747274 0.058302756 0.016914815 0.059115853 0.03308927 0.10595353 -0.016705683
0.12170727 -0.16418083 0.050012197 0.004398069 0.05013314 0.038969845 0.13983627 0.13250358

layers.2.bias f4 [128]
00000000: 548d 073d 4cee 4bbd a81f 9cbd 862d 91bc
00000010: 9aec 033d b25b 19bb 7eaa dd3c 62f4 4abd
00000020: eda5 31bd 3e12 133d f0f4 00bc 2913 7f3c
00000030: c02e 24bd 457a 95bc b1ab 813d fcf6 09bc
00000040: b800 593d 56ed 3ebd 2995 993b 0f52 d73a
00000050: 3445 83bc b7b3 c13d dc4e 1a3e 2e31 963d
00000060: 0e23 3b3d 7ff8 753d 0c8d fb3c bcc7 b63c
00000070: 80e7 423d 36fd 033d 9402 163d 5d50 fc3d
00000080: 26be 423d 88fd cc3d eb50 50bd 9060 933d
00000090: fef3 dd3d bf7b b0ba 258c 98bd 69b2 3cbd
000000a0: ae85 50bb a79a 9c3c c733 81bd 69f7 3bbd
000000b0: b9f4 7b3d cc6b 213e 1050 6b3d f516 7b3c
000000c0: eba6 a83d 40b8 5e3d c4c8 933d aba6 d4bd
000000d0: d584 d93d cf91 303d 4ceb 3e3d 4ed2 8abb
000000e0: e656 5abd 9037 56bc cacb edbc 6b90 243d
000000f0: 06d8 163d e845 673d 56ea 7b3c 5baf 5d3d
00000100: 267e dc3d 4d1e c73d 88f7 fa3d fe49 8cbb
00000110: 4f96 64bd 5920 5cbc 5212 a73c ce17 a43d
00000120: 436c d2bc acd5 3c3e aed0 453d 601e 5abd
00000130: cbf3 913d c867 24bc aaa1 c33d 84a6 7e3d
00000140: f9b9 71bd d5ff 6cbd f0b1 633d 3478 873d
00000150: 9746 c73b 9681 6bbc 50e3 243d e7e4 4a3c
00000160: 68a5 a63d d189 1d3b 475e 053d 6fb8 a43d
00000170: 9f04 753d 16a9 67bd e3ab 903d 0f89 d43d
00000180: 71d2 8ebd 51c1 343d 257c a5bd 21af 7ebc
00000190: 141e a1bd 3b99 ad3d cefb a7bc fb2d da3d
000001a0: 3fbe 8ebd c513 a43b effb 55bd db63 c43c
000001b0: ae96 aa3b 55a5 e83d a00d bd3c 3b3f 763c
000001c0: 37ec fc3d 1f79 5cbd 0913 303d f7a5 133d
000001d0: 9b48 f63d 0f39 0e3e 03bd 1dbd 9979 523d
000001e0: 803a 433d ea7a 11bd 7ed6 c43d f266 163b
000001f0: 53ea fe3a 9fe3 afbd cfcf b33d bc93 f23d
0.033093765 -0.049787804 -0.076232255 -0.017721903 0.032208063 -0.0023400602 0.027058836 -0.049549468
-0.04337113 0.03590607 -0.007870898 0.015568533 -0.040083647 -0.01824678 0.06331576 -0.008420702
0.0529792 -0.04661306 0.0046869707 0.0016427654 -0.01602421 0.09458106 0.15069145 0.07333599
0.045687728 0.060051437 0.030706905 0.022312038 0.047584057 0.032223903 0.036623552 0.123200156
0.04754462 0.10009295 -0.05085842 0.07196152 0.108375534 -0.0013464614 -0.074486054 -0.046068583
-0.003181796 0.019116713 -0.06308704 -0.045890246 0.061512683 0.15763777 0.0574494 0.015325298
0.08234962 0.054374933 0.072160274 -0.10383352 0.10621039 0.043107804 0.046611115 -0.004236496
-0.05330553 -0.013074771 -0.029027838 0.04017679 0.03682711 0.056463152 0.015375694 0.05412231
0.107662484 0.09722576 0.12254244 -0.0042812815 -0.055807408 -0.013435447 0.020394478 0.08012353
-0.025686389 0.18440884 0.048294716 -0.053251624 0.07126578 -0.010034509 0.09552319 0.06217052
-0.059015248 -0.057861168 0.055589616 0.06614724 0.006081413 -0.014374157 0.040255845 0.012383676
0.081370175 0.0024038444 0.032560613 0.080429904 0.05981886 -0.056557737 0.07064035 0.10377704
-0.06973732 0.044129673 -0.08080319 -0.015544684 -0.07867065 0.08476492 -0.020505812 0.10653301
-0.0696988 0.0050072395 -0.052242216 0.023973396 0.0052059507 0.113596596 0.023077786 0.015029724
0.12349742 -0.053826448 0.042986903 0.03604695 0.12025567 0.13888954 -0.038510334 0.051385496
0.04766321 -0.03551761 0.09611224 0.0022949544 0.0019448496 -0.08588337 0.08779871 0.11844584

layers.4.weight f4 [10, 128]
00000000: 284f a6bd 4fa9 86bd c9ca 9b3d 3d09 b3bd
00000010: 2f7a 1dbd 28db 8fbe 5a49 db3d 84c3 3b3e
00000020: 9f96 fc3d bbcc 1c3e 0b1d 073c ba70 723d
00000030: 7ccf cd3d 4378 1ebe 8f8a 39be 993b 22be
00000040: c593 54be 54c2 3f3e 5af6 193e 4d0d 183d
00000050: 62f9 f4bc 1890 c5bd 4787 dcbd 08f4 1ebe
00000060: 4b63 3a3e ef62 043e 2332 bbbd 7311 063d
00000070: 7047 a33c 11d3 e1bc 9b62 f3bd 3ab6 03be
00000080: b982 2f3e 2102 b43d acb6 e8bc eb1a bd3d
00000090: 5655 92bc 90e6 a7bb ce60 113d 80d6 45bd
000000a0: 734b 7e3d ab50 27bd c5d3 0f3e 8303 1fbc
000000b0: 8a0b 0ebe 4350 ab3c 1a2d 343d 0b9d a73c
000000c0: 53dc 39bc 27eb ba3d a8ce 64be 0fa7 773b
000000d0: b78a afbd f4d6 84be bafd 12be 0cf6 403e
000000e0: 636b aa3d 4e71 813d 0bae 853d 7a9e e7bd
000000f0: 71ca b63d 558f e83d ad3b 2abd d426 433d
00000100: fcb9 a9bd f2e0 0fbe 50ea c7bd 9802 8fbd
00000110: 2d05 29bd cece fabd d388 95be 92de a73d
00000120: 982f d63d 578e 2cbe 2fb8 f7bd baf8 3ebd
00000130: 5f18 b93c 7706 39be 1652 08be 4d1a c53d
00000140: 5d98 2b3d 3405 b83c 17d8 4d3d 112d 4a38
00000150: 3bae f93d 8451 953d f9c1 e43d 3ca2 143d
00000160: c9d3 8d3c b82d 04be a052 38bb da8d af3c
00000170: e071 adbe e2e7 c2bd 3241 9cbd e922 93be
00000180: bac7 8fbd ca9b 133c ba62 9abd 26c1 87bd
00000190: bd83 31bd ff80 b4bd 4e7d 023e 81c6 c7bb
000001a0: e963 2cbc 2212 32be a6de 31be 3b05 073d
000001b0: 8d04 dcbc bf6f 24be c09c bcbd e771 493d
000001c0: 44ca dc3c 65cd fe3c 1ece afbd d32e b13d
000001d0: bbe7 cebd 3696 3fbc 9d73 2d3e e082 94be
000001e0: 2499 32be 1184 ac3d 3540 67bd f1d1 84bd
000001f0: baea d03d 540a 52bd 1d2a 1bbe 65d9 ffba
00000200: 4090 793d 0d8b 00bc e56e e83c 170a cc3d
00000210: 8aa3 243c ed23 463e 754f 0cbd 1b17 253e
00000220: 390f 1c3d d353 c5bd 383d 27bc f3de 6fbd
00000230: 5fbe 093e 8a5b 19bd 8edf d63d 4b4d da3b
00000240: 1cba e33d 53c6 6d3d af31 37bd 15ba 02bc
00000250: ef2a e4bd cd06 54be c698 bebd e36e 0c3e
00000260: 0419 6e3e 8e79 cbbd fc5b 8abd e0cd d53b
00000270: abf2 1fbe 1dc1 52be dcca 90bd cd18 043e
00000280: b5c4 9d3d 7569 fe3d 2a1d 4e3d d7f2 2cbe
00000290: f64f 173e d410 2dbe 97ae 0f3d 6785 07bd
000002a0: 3bab 67ba 1cb3 ecbd 2723 cc3b 49a8 bb3d
000002b0: 3c1b b43d 0c5d 39be 29a9 a8bd 6852 633c
000002c0: af35 febc 0ee1 ccbd 6e9f 933d acba 08be
000002d0: 5d15 75be 9120 133e 84ad 8b3d 14e5 58be
000002e0: b239 ad3c f254 24be aa91 743d 6779 0c3e
000002f0: 2257 64be 5949 0b3d d303 a5bd 2407 6cbe
00000300: 0fa3 87bd 4dfb 3abe 8956 91be 2e8c 84bd
00000310: db25 febc 718b 813e 870d 3abe 9d3c ecbd
00000320: 6633 77bd 2610 003c ca87 0b3d cd6b 99bd
00000330: 2720 553d 5c32 0cbe 4f01 c73c d8bd 3f3e
00000340: d666 d4bc f7f9 40bb b186 89bc 4e92 49be
00000350: 482f 5dbd f01f 76bd b722 043c 3c4a 003e
00000360: 441a 3e3d 19f0 e3bd 4d11 2dbe 006d e13d
00000370: 76db 283e 2259 8f3d 33ee d7be 2247 073e
00000380: 269d 93bd 0be6 273e 3a2c 493d 6838 96bd
00000390: 6a7e cdbd dd00 853d 35c9 d9bd 83b1 6fbe
000003a0: 3025 ae3c 0373 3a3d 7288 293e 2545 01be
000003b0: a1bb 8fbe 901a a83d 81bc 443e a191 f7bd
000003c0: 3a3d abbd baed 6ebd 7437 24be 633b 69be
000003d0: b6b9 b4bd 1e29 5fbe c501 233e be97 113e
000003e0: e8d4 8fbe 1a51 133e b118 853d da97 a5bd
000003f0: 1631 a6bd 10e5 96bd 4212 683d b59e 0c3e
-0.081205666 -0.06575262 0.076070376 -0.087419964 -0.0384466 -0.2809689 0.1070735 0.18336302
0.12333416 0.15312473 0.0082466705 0.059189536 0.1004934 -0.15475564 -0.18119262 -0.15843047
-0.20759495 0.18726474 0.15035382 0.03712206 -0.029904071 -0.09646624 -0.107679896 -0.15522778
0.1820194 0.12928365 -0.09140422 0.032731485 0.019931525 -0.027566465 -0.11884042 -0.12862483
0.1713971 0.087894686 -0.028407417 0.0923365 -0.017862957 -0.0051239207 0.03549271 -0.048300266
0.062083673 -0.040848415 0.14045627 -0.009705427 -0.1387159 0.020912295 0.043988325 0.020460626
-0.011344033 0.09126883 -0.22344458 0.0037788784 -0.0857138 -0.25945246 -0.14354602 0.1884386
0.08321264 0.06320439 0.06527337 -0.11309524 0.089253314 0.113554634 -0.041560818 0.04764445
-0.08287427 -0.14050654 -0.097614884 -0.069829166 -0.0412647 -0.12246476 -0.2920595 0.08196749
0.104582965 -0.16851173 -0.12095677 -0.046623923 0.022594629 -0.18068872 -0.13312563 0.09624157
0.04189335 0.022463419 0.050254907 4.8202524e-05 0.12191435 0.072909385 0.1116981 0.03628753
0.017312901 -0.12908065 -0.002812542 0.021429945 -0.33875942 -0.095168844 -0.076296225 -0.28737572
-0.07020517 0.009009311 -0.07538362 -0.06628637 -0.043338526 -0.088136666 0.12743112 -0.0060966616
-0.010521867 -0.1738973 -0.1737009 0.032963973 -0.026857639 -0.16058253 -0.09209585 0.04918089
0.026951917 0.0311038 -0.085842356 0.08651509 -0.10102793 -0.011693528 0.16938634 -0.290061
-0.17441231 0.08423627 -0.056457717 -0.06485356 0.102010205 -0.05127938 -0.15152784 -0.0019519745
0.060928583 -0.007845652 0.028373191 0.09962862 0.010048756 0.19349642 -0.034255464 0.16122095
0.038100455 -0.09635129 -0.010207467 -0.05856223 0.13451527 -0.037440814 0.104918584 0.006662046
0.11119482 0.058050465 -0.044725116 -0.007978936 -0.111410014 -0.2070572 -0.09306483 0.13714175
0.2325173 -0.09935294 -0.06755826 0.0065247864 -0.15619914 -0.2058148 -0.07069942 0.12900086
0.077035345 0.12422458 0.05032078 -0.16889511 0.14776596 -0.1690095 0.03507861 -0.033086207
-0.0008837466 -0.115576 0.0062297764 0.09162957 0.08794257 -0.18101901 -0.0823539 0.013874628
-0.031031458 -0.10003863 0.07208143 -0.1335246 -0.2393393 0.14367892 0.06820205 -0.21181136
0.021145675 -0.16048029 0.05970923 0.13718186 -0.22298864 0.034005497 -0.0805737 -0.23049599
-0.06622898 -0.18259926 -0.28386334 -0.0647205 -0.03102391 0.25301698 -0.18169223 -0.115349986
-0.06035175 0.00781635 0.034065045 -0.074912645 0.052032616 -0.13691086 0.024292616 0.18724763
-0.025927942 -0.0029445866 -0.016787859 -0.19684717 -0.05400017 -0.06008905 0.008064917 0.12528318
0.046411768 -0.11129779 -0.16901131 0.11007118 0.16489968 0.069994226 -0.4217392 0.13210729
-0.07207708 0.16396348 0.049114443 -0.073349774 -0.10033877 0.06494305 -0.1063408 -0.23407559
0.021257967 0.04551984 0.16555956 -0.12624033 -0.28072837 0.082081914 0.19212534 -0.120883234
-0.083612874 -0.058332182 -0.16036779 -0.2277656 -0.08824484 -0.21793029 0.15918644 0.14218041
-0.28092122 0.14386407 0.0649885 -0.08085604 -0.08114831 -0.07367909 0.056658037 0.13732417

layers.4.bias f4 [10]
00000000: b395 0abd 630e cf3a 1f75 20bd b0fe ddbd
00000010: 8edf 5c3d ea7c 1f3d 0bef 00bd a062 72bd
00000020: 7606 e436 de38 8d3c
-0.03383417 0.0015797134 -0.039174195 -0.108395934 0.053924136 0.038937487 -0.03147797 -0.059176087
6.7956817e-06 0.01723903
