Single layer Working model/tuner_model.pt (torch, 43248 bytes, 5 tensors)

model.0.weight f4 [128, 12]
000000 34 4d 07 3e a4 3c b2 bd 0a 8e a6 bd e2 d4 75 3e
       0.13213044 -0.087029725 -0.081325606 0.2400699
000010 7e e7 89 3e 43 1e 74 be a3 d1 6e 3e 05 7f be 3d
       0.26934427 -0.23839669 0.23322158 0.09301571
000020 2b c2 73 be d4 c5 a8 bd cc b0 74 3e d1 3d e7 bd
       -0.23804538 -0.08240858 0.23895568 -0.112910874
000030 cb 0e 4f 3e 5c d6 cc 3d 2c f1 cd bd db ea 8d be
       0.20220487 0.10001823 -0.100557655 -0.27718243
000040 55 66 3e be a5 3a 8a bd 1d d1 35 3e 50 50 6d be
       -0.18593724 -0.06749467 0.17755552 -0.23175168
000050 db c2 74 bd de 95 26 bd 37 ae 6b be 52 be 3c 3e
       -0.05975614 -0.04067027 -0.23015676 0.18431976
000060 75 a4 64 3e 64 d2 64 3d 95 fa 85 be da 12 b6 3d
       0.2232836 0.055864707 -0.2616774 0.088903144
000070 4c 18 5a 3d 9c 2b 53 3e f4 e5 1a be 07 43 40 3e
       0.053245828 0.20622104 -0.15126783 0.18775569
000080 54 e3 63 bc f1 5c 0a 3e fe a1 50 3e e7 f2 61 3e
       -0.01390918 0.13512017 0.20374295 0.22065316
000090 f6 a2 d3 bc 7a 15 77 3e be 81 c9 3c 0f 58 d9 bd
       -0.025834542 0.24129286 0.024597999 -0.10612499
0000a0 c5 21 8b be 3e f2 82 bd b7 f6 68 be 75 b4 88 3c
       -0.27174202 -0.0639386 -0.22750364 0.016687611
0000b0 68 23 61 bd 79 4b cb bd c5 d9 80 be c7 b3 1d 3e
       -0.054965407 -0.09926505 -0.25166145 0.15400611
0000c0 77 c3 64 bd ee 32 47 3d fb 83 25 3e 6a f7 a1 3d
       -0.055850472 0.048632555 0.16163628 0.079085186
0000d0 26 31 ba bd 63 4f 70 3d 1a 8d b7 3a 77 91 07 be
       -0.090914056 0.05866946 0.0014003844 -0.13239084
0000e0 f2 fd f1 bd ab 02 91 3d 60 9d 6c 3e a4 f8 0e 3b
       -0.11816014 0.07080587 0.23106909 0.0021815682
0000f0 d7 83 37 3e 38 99 2b 3e 8d ef 53 3e 83 d2 d9 bd
       0.17921387 0.16757667 0.2069685 -0.10635855
000100 b5 f1 c7 3a 2a d5 f7 3d ab a9 82 3c 27 04 67 be
       0.001525453 0.12101205 0.015950045 -0.22560178
000110 1b 9f e1 3d 98 ad 35 bd 72 cf 62 bd 1a df 2d 3e
       0.11016675 -0.044355005 -0.055373617 0.16979638
000120 d5 a2 08 3e b8 cf 2e 3c a6 31 90 be 03 a2 90 be
       0.13343365 0.010669641 -0.2816288 -0.28248605
000130 37 03 33 be 8b 18 16 be 2c 78 cd 3c bf 55 50 be
       -0.17481695 -0.146578 0.025081716 -0.2034521
000140 3b 6c 63 3e 42 ac 6d 3e e2 98 d0 bd 91 60 81 be
       0.22209255 0.23210242 -0.1018541 -0.25268987
000150 5f b9 8b 3d eb 71 49 be bf 01 6d be 91 e8 af 3d
       0.06822466 -0.19672363 -0.23145197 0.085892804
000160 3d 16 28 3e 3f 1c fc bd 7d 02 4b 3e d9 cb 3b 3e
       0.16414733 -0.12310075 0.19825168 0.1833948
000170 28 19 1a 3e 7e 8f a9 bc cc 5b 52 3e 72 6d 4f 3e
       0.15048659 -0.020698305 0.2054283 0.20256594
000180 66 4c 65 be 79 a7 6c 3e 66 73 9b 3d a2 c7 cf bd
       -0.22392425 0.23110761 0.0759037 -0.10145499
000190 1a 49 cf bc 07 84 de 3c 46 08 81 be c2 23 9b bc
       -0.025303412 0.027162565 -0.25201625 -0.01893795
0001a0 51 e6 95 3e 37 5b b3 3b ce 10 a4 3d 3a b5 d3 3d
       0.2927728 0.00547352 0.08011018 0.103373006
0001b0 42 e6 f1 bc f1 5d 79 3e 70 fb 29 3e 46 00 4e 3e
       -0.02952874 0.24352242 0.16599822 0.20117292
0001c0 16 7a e4 bd 6d 9e 16 3e 47 3b 1a 3d d4 b1 e4 3c
       -0.111560985 0.14708872 0.037654188 0.027916826
0001d0 d3 b0 b4 bd eb f9 41 be 6f 50 eb 3b db 76 87 be
       -0.08822789 -0.18942992 0.0071812193 -0.26457867
0001e0 1f b0 de 3d e2 d3 5d 3c 59 76 87 3e 3b 71 40 bd
       0.10873436 0.013539286 0.2645748 -0.046982985
0001f0 78 08 d5 bc 37 96 86 bd f7 bd ea bd 32 b8 c4 bd
       -0.026005015 -0.0657162 -0.11462014 -0.09605445
000200 70 5f 70 bc 1d a1 52 be 1f 4b 39 be ad 89 9c bc
       -0.014671192 -0.20569272 -0.18095063 -0.019108618
000210 23 7c 67 be 9e 8a 3f 3e 43 7a 91 3e 84 85 39 3e
       -0.22605948 0.18705222 0.2841359 0.18117338
000220 60 68 74 bd f5 8a 4c 3e 96 a9 2a 3e 1a 8d 59 be
       -0.059669852 0.19974883 0.16666254 -0.21245232
000230 33 ce 43 be 5e f4 3c bc bd 73 42 3e df 5e 73 3e
       -0.19121628 -0.011532871 0.18989463 0.23766659
000240 8b 55 66 3e 90 d4 be 3d df 0a 8d be 23 01 d6 3d
       0.2249357 0.09317887 -0.27547356 0.104494356
000250 69 bb 7c 3c 07 4a 00 be e2 98 61 3e e4 ae 5f bd
       0.015425541 -0.12528239 0.22030976 -0.054610148
000260 5a f8 d3 bd 3e 5b 8f 3e 5f 68 34 be 96 26 77 3e
       -0.10350104 0.279993 -0.1761794 0.24135813
000270 b1 6a 4e be 9f 2d 3d be c7 70 75 bd be 7f 61 bc
       -0.20157887 -0.18474434 -0.059922006 -0.013763366
000280 f1 bd c4 3d f1 85 36 3e bc 91 d9 3d 41 05 92 3e
       0.09606541 0.17824532 0.106235 0.28519633
000290 88 2f 64 be 73 0a 7c be c4 9c 25 bd 6a ce 45 be
       -0.22283757 -0.24613361 -0.040432706 -0.19317022
0002a0 ac fc 0c bd 2f ab 48 bd 61 9b 61 3d 63 a7 b1 bd
       -0.034420654 -0.04899138 0.05507982 -0.086745046
0002b0 b8 e2 f1 3b 48 31 4b 3e 44 89 60 be 33 ff 09 be
       0.0073817633 0.19843018 -0.21927363 -0.13476257
0002c0 be 89 4a be 6f 23 0b 3e 3e 3f 0f be 63 67 b4 bd
       -0.19779107 0.13587736 -0.13988969 -0.08808782
0002d0 d4 fe 29 3e 78 1d d2 3d 0f 16 72 3e 18 95 42 3d
       0.16601115 0.10259527 0.23641227 0.047505468
0002e0 2d cd 16 be 82 f2 6d bd e8 92 cc 3d 67 a0 f9 bd
       -0.14726706 -0.0580926 0.09988958 -0.121887974
0002f0 ee 31 a7 3d 1b fb 42 be 13 a4 74 be bf 82 36 be
       0.0816382 -0.19041102 -0.23890714 -0.17823313
000300 e8 a8 80 3e 36 4d 88 3d 14 56 14 be 1e 98 39 be
       0.25128865 0.06655352 -0.14485961 -0.18124434
000310 b9 73 44 3e f4 1f 9f bd 50 8a 3d 3d bd 21 0f 3e
       0.1918477 -0.077697664 0.046274483 0.13977714
000320 d2 7e c7 3c 33 bb 2d 3d 38 38 7c be 01 ac 8d bb
       0.024352465 0.042414855 -0.24630821 -0.004323483
000330 5a fc 8b 3e 4a e1 11 be 2e 98 c3 3d 85 4a 52 be
       0.27340966 -0.14246097 0.0955051 -0.2053624
000340 70 6e 42 3e 6d ff 82 3e cc 5a 82 be 46 aa 0e 3e
       0.18987441 0.255855 -0.25459898 0.13932142
000350 4e 97 73 bd 87 1a 2e 3e 1b a2 4a 3d e7 19 78 bc
       -0.059470467 0.17002307 0.049471002 -0.015142894
000360 f8 cb 44 be db 28 8c 3d 4c 4c 7a 3e 19 e0 27 3e
       -0.19218433 0.0684373 0.24443167 0.1639408
000370 48 79 2d 3e c1 85 38 bd 70 22 45 be fb 15 f0 bd
       0.16940796 -0.045049433 -0.19251418 -0.117229424
000380 8e a7 06 be 07 3f 03 bd a3 88 87 bb 46 cd 90 3e
       -0.13149855 -0.03204253 -0.0041361614 0.2828161
000390 4a 24 8a 3e 60 4d 56 bd 4f 01 34 be a9 ad ec 3d
       0.2698081 -0.052319884 -0.17578624 0.115565605
0003a0 3c ce fd 3d de 35 f3 3c 08 7d 7e 3b f6 ea 28 be
       0.12392852 0.029688772 0.0038831849 -0.1649588
0003b0 07 a9 85 bd 3e 61 8c 3d 03 06 6e bd 6e 27 4b 3e
       -0.0652638 0.06854485 -0.058111202 0.1983926
0003c0 2a ab 18 bd d0 df 6d be 45 df 94 bd f6 b8 e5 bd
       -0.03727261 -0.23229909 -0.07269148 -0.11216919
0003d0 bc a1 0c 3e 7b 12 6c be ac 90 6a be 64 f5 62 be
       0.13733572 -0.23053925 -0.2290675 -0.22163922
0003e0 2d a0 dd bd 41 4a 2f be d0 e3 05 be fb fe 4c 3e
       -0.10821567 -0.1711817 -0.13075185 0.20019142
0003f0 fc 9a 5f bd bb c6 29 be 32 90 2a 3e 70 7f c6 bd
       -0.054591164 -0.16579716 0.16656569 -0.096922755

model.0.bias f4 [128]
000000 8b ab 09 3e 31 07 22 be 66 13 b2 3d 22 64 a1 bc
       0.13444345 -0.15823056 0.08695106 -0.019701067
000010 ac 90 55 3e fe d0 af 3d 29 1b e2 bc 03 be 6d 3d
       0.20855969 0.08584784 -0.027600842 0.058042537
000020 93 db 04 bd 05 8d 15 be 4e 18 0e bc 45 4f 37 be
       -0.032435965 -0.14604576 -0.008672787 -0.17901333
000030 02 a6 94 bc e9 fb 67 be 5a 52 06 bd 81 26 62 be
       -0.018145565 -0.2265469 -0.03279338 -0.22085
000040 0a 32 64 3e 2e 57 69 be 4a a3 58 3e d8 77 7e 3e
       0.22284713 -0.22787163 0.2115604 0.24850404
000050 0b c3 6d be 77 4d b3 3d 67 35 83 be 74 18 91 bc
       -0.23218934 0.087550096 -0.2562668 -0.017711855
000060 de 5c 86 3d 01 af 10 bd e5 f9 20 3e 1b 8b 61 3e
       0.06560682 -0.035323147 0.15720327 0.22025721
000070 41 ca 82 bd 28 b7 4a 3e cd e8 9a 3e ed db 5b 3e
       -0.06386233 0.19796431 0.30255738 0.21470614
000080 65 ca 29 bd ab d0 1e 3e f5 ec b7 3b ea 0f 72 3e
       -0.041452784 0.15509288 0.0056129643 0.23638883
000090 12 16 43 3e 20 11 ce 3d c6 a1 81 be 09 a1 87 be
       0.19051388 0.1006186 -0.25318736 -0.26490048
0000a0 4e cb 68 bd a0 05 55 3e 59 d4 8f 3e c3 ab 4f bd
       -0.05683451 0.20802927 0.28091696 -0.050700914
0000b0 ad 0e af bc 7a 1a 93 3d 0a 36 8b be 04 0d 88 be
       -0.021369303 0.071827844 -0.27189666 -0.2657243
0000c0 a0 6e 10 3e 96 df c8 bd eb af fe bd c1 58 3c be
       0.141047 -0.09808271 -0.124358974 -0.18393232
0000d0 b4 ea 35 3e 5f fd 2b 3d b0 68 87 3e 7f a3 4b be
       0.17765313 0.04198968 0.26447058 -0.19886588
0000e0 7c 77 aa bb 08 e1 42 be 92 76 79 3e 2c 89 74 3d
       -0.005202232 -0.19031155 0.24361637 0.05970113
0000f0 2b b6 2f bd 6c a0 b5 3d 59 e6 75 3e c3 ef 7d 3d
       -0.04289834 0.08868489 0.24013652 0.061996233
000100 45 cb 82 be a4 0b f2 bd a0 95 18 be 80 2c 85 3e
       -0.25545707 -0.118186265 -0.14900827 0.26010513
000110 cd 64 0d be d4 e1 82 3e 61 08 9d 3c 67 4c 8c 3e
       -0.13807984 0.25562918 0.019169034 0.2740204
000120 b4 78 91 3e 89 d6 e4 3d 5e df 92 be 6c 80 69 be
       0.28412402 0.11173732 -0.2868604 -0.22802895
000130 e2 fa 2f 3e d6 17 7f 3e ad ff 84 3e 6a f1 dc 3d
       0.17185548 0.24911436 0.25976315 0.107882336
000140 4f cc 4d be 36 6e 87 3e 78 26 57 bd 8b 9d 14 be
       -0.20097469 0.26451272 -0.05252692 -0.14513223
000150 5e 75 a3 3d 2e 14 7f bd 18 c5 91 be 60 d3 5f 3e
       0.079813704 -0.062275104 -0.28470683 0.21857977
000160 15 17 67 be 07 ba 73 3d ce e6 1a 3e 25 4b 58 3d
       -0.22567399 0.05950358 0.15127108 0.05280604
000170 42 dc 57 3e bf 46 2a 3e 01 f1 8e 3e 20 60 e2 3d
       0.21080115 0.1662855 0.27918246 0.11053491
000180 56 3e 89 3e df b4 83 be cc df 1d bd 7d b3 13 3e
       0.2680537 -0.2572393 -0.038543507 0.14423938
000190 fa 1b 42 3e 60 8f 91 bd 97 f9 19 3e 3c 68 ed 3d
       0.18955985 -0.07107425 0.15036617 0.11592147
0001a0 5e b8 85 bd 08 e8 c0 bd 3e e3 2b 3d 6e 3a 61 bd
       -0.06529306 -0.094192564 0.041964762 -0.054987364
0001b0 9f 02 66 be f7 28 46 be 04 05 27 3e 9b d8 ee 3d
       -0.22461937 -0.19351564 0.16310507 0.11662408
0001c0 96 8c 85 be 14 d1 13 be 41 b4 fe bc f1 b6 10 3e
       -0.2608382 -0.14435226 -0.031091811 0.14132287
0001d0 84 03 e7 3b 12 e3 0b 3e 10 88 4e be 5d 65 0e 3e
       0.0070499796 0.13660839 -0.20169091 0.13905855
0001e0 8b 5a 07 be 39 04 4f 3e 4a 82 90 bd 12 18 fd 3d
       -0.13218133 0.20216455 -0.07056101 0.12358107
0001f0 2e d1 8b 3e 37 23 96 3c 8b ba 6f bd 74 a5 5d 3e
       0.2730803 0.018327339 -0.05852751 0.21645147

model.2.weight f4 [64, 128]
000000 8c b4 32 3d a5 b0 7c bd d7 21 fb 3c c4 eb 2a bd
       0.043629214 -0.0616919 0.030655785 -0.04172875
000010 ad ff d0 bb 81 c0 a0 bd c5 29 f9 bc 3e 39 90 bc
       -0.006378135 -0.07849217 -0.030415425 -0.01760542
000020 9a fc 8c bd 38 59 e2 bc d7 6e fe bc fe 9a 9f bd
       -0.068841174 -0.027630433 -0.031058712 -0.07793234
000030 c8 fe aa bd 0e 9f b9 bd 96 47 72 bd 8d 5f f0 bb
       -0.08349377 -0.090635404 -0.0591503 -0.0073356093
000040 73 88 91 3c dc ab 3f bc 2a 59 13 bd f5 82 34 3c
       0.01776526 -0.011698689 -0.035973705 0.011017551
000050 ac 38 3d bd cc 6b 20 3d 90 1a 1b 3d 38 7c 45 bd
       -0.046196625 0.039165303 0.03786713 -0.048214167
000060 d4 78 b1 bd 21 97 85 3d 82 a5 6e bd 18 f4 88 3d
       -0.08665624 0.06522966 -0.05826331 0.06687182
000070 2e 0c a8 3b 08 9b 47 3c a8 e3 6d 3d 0c 42 91 bd
       0.005128405 0.012182958 0.058078438 -0.070926756
000080 9d ba 80 3d f8 8d c8 bd 26 db 99 3c 2c fb 9f 3b
       0.06285594 -0.097927034 0.018781256 0.004882237
000090 22 de 2e bd ec df 98 bb 51 9a 8a 3d 76 1d 9b 3d
       -0.04269231 -0.0046653654 0.06767715 0.075739786
0000a0 11 60 cc bc 85 b8 5c 3d 58 ec a2 bd 2e d0 2f bd
       -0.024948152 0.05388691 -0.07955235 -0.042923145
0000b0 71 c0 e3 bc ba 5c 51 3d a1 8c 05 bc b6 55 a7 bd
       -0.027801724 0.05111382 -0.008151204 -0.08170645
0000c0 bf cf a1 3c 6d a1 96 3b 86 1f ef bc 06 7d 3d bd
       0.019752381 0.00459688 -0.029189836 -0.04626181
0000d0 f0 c2 8a 3d a2 bc 23 bc 10 10 81 bd de 9f 03 bd
       0.067754626 -0.009993704 -0.06301892 -0.032134883
0000e0 2a 01 90 bd ca 10 32 3d 87 ca ac bc fd 4f c5 bd
       -0.07031472 0.043473043 -0.021092666 -0.09634397
0000f0 e3 f0 31 bd 88 91 b2 bc 55 25 f9 bc ed 54 42 bd
       -0.043442618 -0.02179791 -0.03041331 -0.047444273
000100 3d 1c e6 bc 9e a0 78 3d 73 c5 8b bd 64 c8 81 3d
       -0.028089637 0.06070005 -0.0682477 0.063370496
000110 c0 ec 55 3d d7 d9 c2 bd cf 84 b5 bd 43 1f 7f 3d
       0.052227736 -0.09514206 -0.08863222 0.062285673
000120 71 1a 3f bd 2e 9c 92 3d f9 99 b6 bd 56 d8 51 bd
       -0.046656076 0.07158695 -0.08916087 -0.051231705
000130 e6 05 75 3d 8d 86 a9 bd 59 49 22 3d 89 bb 8e bd
       0.05982008 -0.08277617 0.03962073 -0.06969363
000140 b2 ba 30 3c 2e 5c 2b bd 76 24 83 bd e5 2a 49 bd
       0.010786699 -0.041835956 -0.06403439 -0.049113173
000150 7f 89 62 3d c5 b0 d0 3b f7 b9 f3 3c 62 ac d6 bc
       0.055306908 0.006368729 0.02975176 -0.026205245
000160 07 2f 22 3d e2 89 9e bd 19 94 8b 3d 85 8d 97 bd
       0.03959563 -0.07741143 0.06815357 -0.074000396
000170 18 cc 44 3c 42 5e 62 bd 5d 80 db 3c 52 a2 be bd
       0.01201155 -0.055265673 0.026794607 -0.09308304
000180 08 84 99 bd 14 0c 85 bc 56 45 c2 bd 39 3f 7c 3d
       -0.07495886 -0.01624111 -0.09485881 0.06158373
000190 15 3c 49 3c 73 10 4b 3c f9 6f a7 bd 20 94 65 3d
       0.012282391 0.0123940585 -0.08175654 0.056049466
0001a0 cb 75 8a bd cd 76 72 bd 04 58 8a bc dd 36 71 3d
       -0.067607485 -0.05919533 -0.016887672 0.058890212
0001b0 91 7c 81 bc d8 e0 19 3d df 00 a5 bc 38 35 94 3d
       -0.015806468 0.037567943 -0.020142017 0.07236713
0001c0 ed ee 8e bd 50 f4 85 bd 34 09 97 3d 58 3d 76 bd
       -0.06979165 -0.065407395 0.07374802 -0.060117096
0001d0 01 b6 9b bd 7d a7 01 bd be f2 27 bd 77 ba 45 3d
       -0.07603074 -0.03165387 -0.04100298 0.04827353
0001e0 c3 31 9f bd 09 09 20 bd b2 ab 4f 3c 8f b5 a9 3b
       -0.07773163 -0.039071117 0.012675213 0.005179114
0001f0 63 6d 8f 3d 51 ef 3f 3d c4 7a 68 bd dd e1 9f bc
       0.07003286 0.04685909 -0.056757703 -0.01951688
000200 c0 a9 47 3d 37 82 59 3d 56 34 58 bd 69 b3 18 3d
       0.04874587 0.0531027 -0.052784286 0.037280474
000210 e4 c7 6a 3d 2c 84 f3 3b e5 64 80 bd ef 49 67 bd
       0.057319537 0.0074315276 -0.06269244 -0.056466993
000220 f8 87 1f bd d7 83 3a 3d f5 3d 8e 3d 71 51 a7 3d
       -0.03894803 0.04553589 0.06945411 0.081698306
000230 78 63 77 bd c4 5d 8a bd 1d 56 89 39 ac 73 f6 bc
       -0.060397595 -0.067561656 0.00026194836 -0.030084454
000240 2c a6 88 bd 2c 93 12 3b 9c 92 a3 bd 6c c8 f1 bc
       -0.0667232 0.0022365553 -0.07986948 -0.029514514
000250 52 ef 7f bd 7e 03 97 bd ed 2c 9a 3c a6 28 78 3d
       -0.062484093 -0.07373713 0.01882025 0.06058564
000260 07 b9 21 bd b6 c7 3a 3c 37 3b 2f 3d 09 5c 37 bd
       -0.039483096 0.011400154 0.04278108 -0.044765506
000270 e3 b1 b1 3c 2b 53 a9 3c a4 32 37 bd 36 69 2f 3c
       0.021691268 0.02066954 -0.04472603 0.010706237
000280 15 a9 8a bc d7 a8 a4 bc 5d fd 29 3d 0c 12 49 bd
       -0.016926328 -0.02010004 0.04150139 -0.049089476
000290 8d e2 c1 bd 6f 1d 23 3d fd 56 35 3d 15 2d 30 bc
       -0.09467039 0.039822992 0.04427241 -0.010752936
0002a0 5e db 30 bd 5d 6e 01 3d 09 a6 8d 3d a6 52 a2 bc
       -0.043177955 0.03159939 0.06916434 -0.0198148
0002b0 d1 93 86 bd d0 15 99 bd d6 7a 5c bd 12 3e 9c bd
       -0.065711625 -0.074748635 -0.053828083 -0.076290265
0002c0 dc f9 58 bd cf bf 01 3d e7 98 22 3d 23 ef 65 bd
       -0.05297266 0.031677064 0.0396966 -0.05613626
0002d0 af d5 cb bc 31 63 eb 3c 44 5f 8f bc 1c 37 aa 3b
       -0.024882166 0.028733822 -0.01750148 0.005194558
0002e0 f8 55 1c bd 3d 2d af bd 42 c6 5e 3d f1 03 91 bd
       -0.038167924 -0.085535504 0.054388292 -0.0708083
0002f0 57 a8 68 3c de d6 11 bd 84 a4 1b 3d 13 7b 54 bd
       0.014200292 -0.035605304 0.03799869 -0.051875185
000300 01 be 27 3d 8b 58 cf bc b8 66 7e 3d 92 9b 60 3d
       0.040952686 -0.025310775 0.06210968 0.054835863
000310 43 5c 1c 3d e7 f8 5c 3d 3a 8c b5 bc cd cc ac 3c
       0.038173925 0.05394831 -0.022161592 0.02109375
000320 eb bd 0a bd 46 a5 96 3d 9a 04 f6 3b f4 a4 a7 bd
       -0.033872526 0.07355742 0.007507873 -0.08185759
000330 d0 46 af 3b 1e 2a 93 bb 14 4c 84 3d ca c3 14 3c
       0.0053490177 -0.0044911047 0.06459823 0.009079883
000340 b8 18 7f bd 82 27 72 3c b2 9b d6 3c f5 87 83 3b
       -0.062279433 0.014779927 0.026197288 0.00401401
000350 36 fb a6 3c 56 2c 5b bd da 91 6f 3d 45 4a 2d bd
       0.020383459 -0.05350908 0.058488704 -0.042307157
000360 be 4a 81 3d 41 77 7e 3c a4 7a f4 bc 8d e5 97 3d
       0.06313084 0.015531362 -0.029843636 0.0741683
000370 75 ed 97 3d 69 a9 98 3d 24 d7 38 bd fc 6f 58 3d
       0.07418338 0.074541874 -0.04512705 0.05284117
000380 b3 95 98 3d 40 23 19 3c 51 a0 c3 bd 2e ef 8f bb
       0.07450428 0.009346783 -0.09552062 -0.004392526
000390 9b ff bc bc 37 8a 34 bd dd 52 50 bd 11 1a 52 3d
       -0.023071101 -0.044077124 -0.050860275 0.05129439
0003a0 91 32 78 bd a5 71 9a 3d f3 44 87 3c 1a b6 44 bd
       -0.0605951 0.07541207 0.01651237 -0.048025228
0003b0 ee 16 88 bd b5 c4 9d 3d 8d 77 a5 bb 56 77 4e 3d
       -0.066449985 0.077035345 -0.005049652 0.050406776
0003c0 e0 e4 cd bc 72 fe 96 3d ca 91 8f 3d 63 dd 27 bd
       -0.02513355 0.0737275 0.07010229 -0.040982615
0003d0 df b0 fe bc 78 4b ef bb c8 5a af bd 82 a0 b3 bd
       -0.031090198 -0.0073026977 -0.08562237 -0.08770849
0003e0 c3 01 39 3c 07 b0 cb bd bc 99 13 3d 30 78 e6 bc
       0.011291924 -0.09945684 0.036035284 -0.028133482
0003f0 69 f7 7a 3d 63 9d f5 3b f0 ca f7 3c a3 c7 b6 bd
       0.061271105 0.0074955686 0.030248135 -0.089247964

model.2.bias f4 [64]
000000 4b 73 82 3d 94 28 fb 37 1c 3b c1 bd 46 4a a7 3c
       0.06369647 2.9940427e-05 -0.09435102 0.020421159
000010 12 e2 1f bd 62 79 62 3d f6 9d 30 3c c0 d5 d2 3b
       -0.039033957 0.05529154 0.010779848 0.0064341724
000020 13 d8 90 3d bf c9 b9 3c b3 75 63 3d 4b f7 2d bd
       0.07072463 0.022679208 0.05553217 -0.042472165
000030 51 02 14 3c c6 51 54 3d b7 07 bf 3d c1 b4 92 3b
       0.009033755 0.051835798 0.09327643 0.004477114
000040 8a 73 99 bc 44 f6 a2 3d 39 80 49 3c 6e a2 23 3d
       -0.018731851 0.07957128 0.012298637 0.039949827
000050 d8 31 cb 3d ae 78 b2 bd b1 e8 2a 3c 24 5b c3 bd
       0.09921616 -0.08714424 0.0104314545 -0.09538868
000060 89 9d b7 3d e1 62 bd 3c 75 da ba bd 1f 7c bd 3d
       0.08965594 0.023118438 -0.091236986 0.0925219
000070 e5 eb 54 3b 74 27 80 3d 86 22 29 bd ba ed 91 3d
       0.0032489237 0.06257525 -0.04129269 0.07125421
000080 2c 0b 86 3d 13 bf 0a bd 8e 5a d7 bc 7b f0 ec 3c
       0.065450996 -0.03387363 -0.026288297 0.028923264
000090 14 48 85 bd 4f 12 cf 3d 49 72 52 bd 39 56 7a 3d
       -0.065078884 0.10110914 -0.051378522 0.061117385
0000a0 4f ac 85 3d 25 97 64 3d 95 b5 a5 3d ad 36 e1 bc
       0.06527006 0.055808205 0.08091275 -0.027491892
0000b0 42 fe f2 bc 61 59 59 3d 52 bb 02 bd 21 64 19 bd
       -0.029662255 0.053063754 -0.031916924 -0.037449006
0000c0 c6 61 ed bb f4 85 93 bd 2b 53 2f bd 56 00 85 bb
       -0.0072443215 -0.07203284 -0.042803925 -0.004058878
0000d0 e0 db 46 3d 7c e8 59 3c 35 cb f9 3c 43 7c 4a 3d
       0.048549533 0.0133000575 0.030492404 0.04943491
0000e0 91 54 4f 3d d1 d2 e8 bb d2 d3 b1 3d 9f 3b 07 bd
       0.05061776 -0.0071052094 0.0868298 -0.033015843
0000f0 33 89 99 bc 8f e7 c0 bd 76 e5 27 3d 29 84 d9 bc
       -0.01874218 -0.09419166 0.040990315 -0.026552277

model.4.weight f4 [1, 64]
000000 97 fc 9b bc c6 93 b7 bd bc 63 d1 bd b3 13 99 bb
       -0.019041343 -0.089637324 -0.10224101 -0.004671538
000010 a4 0f 77 3d f4 4a f3 bb 84 2c 76 3c 65 be 64 3c
       0.06031765 -0.0074247066 0.015025262 0.013961409
000020 c1 d4 ec 3d b7 b5 93 3d 08 3b af bb 0b 5d c5 3d
       0.11564017 0.07212394 -0.0053476132 0.09636887
000030 07 eb 87 bd 06 98 46 bd 59 6f b3 3d b7 3e 9d bd
       -0.06636625 -0.048484825 0.08761472 -0.076779775
000040 09 f2 e1 3d c3 a8 04 3d 8f 2d 5c 3b 81 aa fb 3c
       0.11032493 0.032387506 0.003359649 0.030720951
000050 ce 19 00 3e b3 d8 13 bd 90 a2 d7 3c c1 a0 0a 3e
       0.12509844 -0.036095332 0.026322633 0.13537885
000060 6f 68 d1 3c 22 92 eb 3b ea f8 03 bd 7a a6 d7 3c
       0.025562493 0.0071890512 -0.032219805 0.0263245
000070 38 76 71 3d 46 3e 76 3d 88 b1 5d 3d 52 77 22 bd
       0.058950633 0.060117982 0.054124385 -0.039664574
000080 b0 a9 c6 3d 3d dc dd bd de 4c 82 3d 7a 20 a3 3d
       0.09700334 -0.10833023 0.063623175 0.07965179
000090 4c cc ad bd 64 ef 2f 3c 11 6d 17 bd 54 18 d7 bd
       -0.08486232 0.0107382275 -0.03696925 -0.10502687
0000a0 fe ac c2 bb 1e 9f a6 3d 58 b0 ee 3c ee 2c 9d bd
       -0.0059410324 0.08135818 0.029136822 -0.07674585
0000b0 c5 f9 0e bd 98 ec 81 3c 9c 17 d9 bd b2 b1 3d 3d
       -0.034906168 0.015859887 -0.10600206 0.04631204
0000c0 0b ca e7 3c ec d1 83 bd 52 7a 01 3e b7 d7 6c bd
       0.028294584 -0.06436524 0.12644318 -0.05782291
0000d0 e7 30 d0 3d 6c 1e a6 3d 30 f5 80 3d 80 82 bc 3b
       0.101655774 0.08111271 0.06296766 0.0057528615
0000e0 8f 0c 2d 3c f7 13 90 3d 3a 99 00 3e a6 c5 ee bc
       0.010562076 0.07035058 0.12558451 -0.02914698
0000f0 80 89 8d 3c 04 a1 91 bd a3 b3 cc 3c 42 3b 85 bc
       0.01727748 -0.071107894 0.024988001 -0.016263608
