Single layer Working model/tuner_model.pt (torch, 43248 bytes, 5 tensors)

model.0.weight f4 [128, 12]
000000 14 9a 17 be ed f8 fb 3d 5a eb 8f be a7 06 7d be
       -0.1480487 0.12303338 -0.28109246 -0.24709569
000010 41 a4 29 bb 21 dc 8a 3e dd 06 04 3e bb 4c 92 be
       -0.0025885256 0.2712107 0.12893243 -0.28574166
000020 72 08 94 3e 5c 4f 86 3d b4 55 de 3d be e9 50 3e
       0.28912693 0.06558105 0.1085619 0.20401666
000030 fe 17 98 be ef 14 e9 3d 5c 71 fb 3b 32 b5 29 3d
       -0.29705805 0.11380946 0.0076734256 0.041432567
000040 b1 5f 75 be 31 3a b1 3d aa 1d c4 bd 0b c1 66 3e
       -0.23962285 0.08653677 -0.095759705 0.22534578
000050 e6 df ae 3d e9 cc 96 3e fd 2b b0 bc 5c 2f 7a be
       0.08538799 0.2945321 -0.02150535 -0.24432129
000060 40 57 03 be 49 04 59 3d 40 ec 48 be 44 ac f1 bd
       -0.12826252 0.052982602 -0.19621372 -0.11800435
000070 d3 88 f2 3d c5 30 86 3e e4 a1 ee bd bc 6a b2 3d
       0.118425034 0.26209083 -0.11651972 0.08711764
000080 2d a8 76 3e 98 d0 ba bd 72 19 fa bd 44 c0 00 be
       0.24087591 -0.09121817 -0.122118846 -0.12573344
000090 96 22 5b bd f8 b1 01 bd db e6 8c be 31 1f f5 bd
       -0.05349978 -0.031663865 -0.2751988 -0.1196884
0000a0 14 e0 94 39 45 88 36 be 73 b2 82 3e d7 05 dc 3c
       0.0002839571 -0.1782542 0.2552677 0.026858253
0000b0 c2 4a 8a 3e 19 b2 3e be 97 e9 52 3e 35 17 13 be
       0.2701016 -0.18622626 0.2059692 -0.14364322
0000c0 b7 08 2b be 82 84 6d 3d 08 1f 7a 3b 90 22 35 be
       -0.16702543 0.057987697 0.0038165469 -0.17688966
0000d0 6d 5a 31 be e4 33 4c be bc b6 21 3d e5 52 5c be
       -0.17319651 -0.1994167 0.03948091 -0.21515997
0000e0 df fc d1 3c 02 9d 0a 3e f4 df 73 3d ca 16 43 3e
       0.025633274 0.13536456 0.05953975 0.19051662
0000f0 44 f7 8c be 7f 12 91 3e ee c5 24 bc 67 10 98 3d
       -0.275324 0.28334424 -0.010056956 0.074250035
000100 db 0e f0 3d 3d 44 0e 3d 52 70 34 be 53 f9 7e be
       0.117215835 0.034733046 -0.17620972 -0.24899797
000110 c5 a6 39 3e 16 e6 ec bc 62 5b fe 3d f0 af 34 3e
       0.18130024 -0.028918307 0.12419774 0.1764524
000120 a2 55 18 3e b4 0d 2f 3e b0 d9 8c bd e2 61 01 be
       0.14876416 0.17095071 -0.06877458 -0.12634996
000130 57 42 3e 3e 2d 0f 49 be 41 e6 cd 3d c2 be 0c be
       0.18579994 -0.19634695 0.10053683 -0.13744643
000140 4a 69 e8 bd 66 ba 87 be 4b 46 95 bc db e4 3a 3c
       -0.11348207 -0.26509398 -0.018221995 0.011407102
000150 f5 d3 38 be 3e 44 55 3e 6a bf 07 3e 93 91 72 be
       -0.18049605 0.20826814 0.13256612 -0.23688345
000160 51 0f b9 bd 8e 5a 86 3e 36 73 05 bd c0 46 66 be
       -0.090361245 0.26240963 -0.032580577 -0.22487926
000170 6a 39 56 bd 1a b2 d6 bd 93 a5 11 3d d4 fd c2 3d
       -0.052300848 -0.10483189 0.035558295 0.0952107
000180 67 42 46 3e 07 ef 2b 3e 4d 41 80 be e9 c5 90 be
       0.19361268 0.167904 -0.2504982 -0.28275993
000190 75 84 66 bd e4 a9 3e be 0b 20 03 be 3c 03 7e bd
       -0.056278665 -0.18619496 -0.12805192 -0.062014803
0001a0 44 68 a3 bd 02 bd 23 3d 31 24 b6 bd 3b 0b ca 3c
       -0.079788715 0.039975174 -0.08893622 0.024663558
0001b0 34 b4 99 3d 35 25 5c be 95 b3 d6 bd 8a 7b 62 3e
       0.07505074 -0.21498568 -0.10483471 0.22117439
0001c0 88 31 4d 3e 07 6c 40 3e e2 b2 de 3d 9e ee ef bc
       0.20038426 0.18791209 0.10873963 -0.029288586
0001d0 81 12 8f bd 79 19 47 3e 59 58 20 3e 5c ba 2f be
       -0.06985951 0.19443311 0.15658702 -0.17160934
0001e0 c8 38 6d 3e 66 12 12 bb 24 54 8d 3d 25 97 74 3e
       0.23166192 -0.0022288798 0.06900814 0.23885782
0001f0 59 43 25 3d 01 43 83 3e 63 e8 8a be d8 cf 9c bd
       0.04034743 0.25637057 -0.27130422 -0.076568305
000200 24 79 e9 3c c6 97 29 be a9 37 b7 3c 2d 0a 2d bd
       0.028500147 -0.16561803 0.022365408 -0.042246033
000210 06 15 88 be 01 55 23 bc 2f c6 a2 3c fb 30 90 3d
       -0.2657854 -0.009968997 0.019869892 0.07040592
000220 de f8 5b bd b1 86 36 3b 92 74 04 be 17 45 20 be
       -0.053704135 0.0027851278 -0.12935093 -0.15651356
000230 cd aa 42 be 7c 11 a3 3d 7f 78 62 be 81 73 70 3d
       -0.19010468 0.07962319 -0.22116278 0.058703903
000240 95 f5 02 be 40 61 7e bd b3 c9 3a bd 13 3a 08 3e
       -0.12788995 -0.062104464 -0.04560251 0.13303404
000250 f6 3f 0e bd ad 86 42 bd d5 df 12 3d 78 8d 83 be
       -0.034728967 -0.047491718 0.035857994 -0.2569387
000260 a6 e1 0f bd bb f8 81 3e ac 6f 61 bd c2 bc 10 be
       -0.035127304 0.2538508 -0.05503814 -0.14134505
000270 3f 68 74 be f1 20 88 be 52 70 89 be ea 73 8a 3d
       -0.23867892 -0.26587632 -0.26843506 0.0676039
000280 92 a9 26 be 70 b8 b7 bd 09 9c 71 be b8 c7 c8 bc
       -0.16275623 -0.089707255 -0.23594679 -0.024509296
000290 bb 2a 9f 3d 4b 03 4b be ed 95 1d be 60 01 31 3e
       0.07771822 -0.19825475 -0.15389223 0.17285681
0002a0 13 1f 0f bd 64 f3 9a 3d 78 46 8e 3e 23 8f 36 3d
       -0.034941744 0.07565954 0.27788138 0.0445701
0002b0 4b f1 ff 3d a0 a9 8e bc 5a 1c c2 bd b3 0b 2a be
       0.12497195 -0.017414868 -0.09478064 -0.16606025
0002c0 89 ed 6c 3e 4c 08 ac bc 69 f0 4f 3e 5a 69 63 3d
       0.23137487 -0.02100005 0.20306553 0.055520393
0002d0 cf 2c 52 3e 45 35 8a 3d c5 6d 82 bd a9 95 94 3d
       0.20524906 0.067484416 -0.06368593 0.07255108
0002e0 82 4a 5a be a0 c5 33 3e a5 3b c6 3d e1 b0 92 3b
       -0.21317485 0.17555857 0.09679345 0.004476652
0002f0 23 2c 36 be 5b 8a 8c be 55 81 88 3e ac 69 86 3e
       -0.17790274 -0.27449307 0.26661173 0.26252496
000300 5f 6f 6a bd d2 40 83 3e ef f9 85 be be 03 85 3e
       -0.057235118 0.2563539 -0.26167247 0.25979418
000310 50 5c 9f 3b 1f a2 50 3e 46 30 21 be c5 0c b8 bd
       0.0048632994 0.20374344 -0.15741071 -0.089868106
000320 a7 51 64 be 3f 2b 78 bd 39 46 71 3e 80 94 82 3e
       -0.22296773 -0.060588118 0.23561944 0.25503922
000330 94 98 45 3e b1 ce 25 be 3b dd 2b be 4c ac 72 3d
       0.19296485 -0.16192128 -0.16783611 0.059246346
000340 d8 b8 10 3e 13 1b c6 3c fa 4d d6 bd fe 0b 02 be
       0.14133012 0.024182832 -0.104640916 -0.12699887
000350 33 00 c9 3d dc 4c 83 3c 74 5c 6c 3d 4d f2 80 3e
       0.09814491 0.01602786 0.057705358 0.2518486
000360 ca 2e 33 3e 33 1e 8d 3e c7 c7 83 be b8 44 11 bb
       0.17498317 0.27562103 -0.25738356 -0.0022166204
000370 d5 7b 99 be ca e9 af bc 49 b6 80 3e c8 fe 56 3e
       -0.2997729 -0.021473784 0.25139073 0.20995629
000380 01 dd f9 bd be 2f 82 3d b4 d1 8a bd e9 6d 0c be
       -0.12200356 0.06356762 -0.06778279 -0.13713802
000390 1f 06 30 3e 63 d6 a5 bd d9 e2 90 3e e3 a8 00 3e
       0.17189835 -0.08097532 0.2829807 0.12564425
0003a0 57 95 bd 3d d4 27 84 bc 58 ea c7 3d d2 f0 19 be
       0.09257 -0.016132273 0.097614944 -0.15033272
0003b0 c6 8c 36 be 33 5d 3e 3e 32 b5 90 be b8 ce 1d be
       -0.17827138 0.1859024 -0.2826324 -0.15410888
0003c0 ae 20 92 be 84 00 7e 3e 35 6c 8f be 17 c2 2b 3c
       -0.28540558 0.24804884 -0.28012243 0.010483286
0003d0 69 37 13 3e ac df 93 be c2 05 29 be 0e 80 8e be
       0.14376606 -0.28881586 -0.16506103 -0.27832073
0003e0 02 0b 2c be db 4a 1d 3e 4a d9 fe 3d 15 a9 58 3d
       -0.16801074 0.15360586 0.12443788 0.052895624
0003f0 d8 e1 da bd 43 22 fb bc 2b 84 70 3d 5c 69 6e be
       -0.106876075 -0.030655986 0.058719795 -0.23282379

model.0.bias f4 [128]
000000 bd ed 2b 3e 0f 3b 17 3e 13 52 97 bd 78 e3 7d 3e
       0.16789909 0.14768623 -0.07388701 0.24793804
000010 10 ea f4 bd ca c7 32 3e 16 a1 39 be e3 d0 07 3d
       -0.119587064 0.17459026 -0.18127856 0.033158194
000020 c4 42 1d be c8 96 29 3e a5 d6 d5 3d 85 9e 80 3e
       -0.153575 0.16561425 0.10441331 0.2512094
000030 74 57 05 3e 04 a3 04 be 36 0d f8 bd 6f 7e 64 be
       0.13021642 -0.1295281 -0.12111895 -0.22313856
000040 9d 87 b1 3c ce e2 76 be 1b 2c a3 3d fa 6c c9 3d
       0.02167111 -0.24109957 0.07967397 0.09835239
000050 3e 0c 1d be 73 9f 16 3c ff bf 80 be 2b 3b eb bd
       -0.15336701 0.009193289 -0.2514648 -0.11485895
000060 fe 8b 84 be 95 8a 13 3e 0e e7 80 be 38 52 e1 bd
       -0.25888056 0.14408334 -0.2517628 -0.1100201
000070 49 04 7a bd ae 66 33 3e 09 30 e6 3c 20 60 ae 3d
       -0.061039243 0.17519638 0.028099077 0.08514428
000080 5e b7 c6 bd a0 14 04 be c0 12 06 be 3a fc 9a 3d
       -0.09702943 -0.12898493 -0.1309309 0.0756764
000090 3f bf 4e 3e d1 28 4e be a4 e5 da bc 0c f4 81 3e
       0.20190142 -0.20132758 -0.02672083 0.25381505
0000a0 e3 e7 83 3e f8 60 cd bc bd 2c 52 3e 9e 48 e3 3d
       0.25762853 -0.025070652 0.20524879 0.11097835
0000b0 41 3b 79 3e 91 78 43 3a 88 6a aa bd ab c9 86 3e
       0.2433901 0.00074566255 -0.083211005 0.26325735
0000c0 82 9f 30 3e 6a a8 d9 3c 42 17 27 be 7b c6 15 3e
       0.17248347 0.026569564 -0.16317466 0.14626496
0000d0 08 ef 42 be b0 dc 70 be 0e b5 20 3e 28 69 21 3e
       -0.19036496 -0.23521686 0.15694067 0.1576277
0000e0 2f b1 97 bd 15 78 a4 bd c6 6d dd bd 07 eb ec 3d
       -0.07406842 -0.08030716 -0.10811953 0.115682654
0000f0 55 d4 3f 3e d2 39 46 3e f6 65 79 bd b0 1b 36 bd
       0.18733342 0.19357994 -0.060888253 -0.04446
000100 06 15 6c be bb cc 62 be b3 c6 10 bd 31 43 7a 3e
       -0.23054895 -0.22148411 -0.035345744 0.24439694
000110 c3 14 16 3e 93 8f 6b bd e5 bd f5 3d fa 90 48 3d
       0.14656357 -0.05750997 0.1199911 0.048966385
000120 fe 11 7e 3e 99 50 2d 3e d3 50 4d 3e c8 cb 52 3e
       0.24811551 0.16925277 0.20050363 0.20585549
000130 b2 06 9a 3e 76 b4 20 3e 3e 6c be 3d 99 3f 13 3e
       0.30083233 0.1569384 0.09297989 0.1437973
000140 1e b5 30 be 43 01 94 be be c2 83 be 40 6d 4f 3e
       -0.1725659 -0.28907213 -0.25734514 0.2025652
000150 12 63 5f bd 79 eb 66 3b d0 d1 85 3e b6 0a 15 3d
       -0.05453784 0.0035235567 0.26136637 0.036387168
000160 3c 08 0c 3d 1d 90 52 3e f0 86 c0 3c 19 ef 32 be
       0.03418754 0.20562787 0.023501843 -0.17474021
000170 e5 0a a7 3c 17 28 54 bb f6 d6 3a be 78 cc 0e 3d
       0.020390937 -0.0032372528 -0.18246064 0.034862965
000180 93 50 9f 3d 18 6e 94 bd 67 e7 07 3e b3 c1 0a be
       0.0777904 -0.07247561 0.13271867 -0.13550453
000190 e0 b5 56 3e 7a 05 37 3c 03 9a 93 3e a1 f7 29 be
       0.20967817 0.011170739 0.2882844 -0.16598369
0001a0 5f 41 69 be 63 81 ab 3e 88 3f 28 be 96 8d 99 3e
       -0.22778843 0.33497152 -0.16430485 0.29990834
0001b0 10 8d 3f be 31 b2 c3 3d 4e 9c 24 3d ab c3 17 3e
       -0.18706155 0.09555472 0.040188126 0.14820735
0001c0 c7 63 0e 3e 84 6d 7c 3d b9 d3 44 be ed 74 9d 3e
       0.1390525 0.06162788 -0.19221391 0.3075327
0001d0 fe c8 05 3e a7 58 ed 3d ff 43 59 3e ad 05 f3 bd
       0.13064954 0.11589175 0.21217345 -0.11866317
0001e0 c9 29 0c be 22 66 b4 3d 98 06 07 bc 44 b8 d8 bd
       -0.13687815 0.08808543 -0.008241318 -0.10582021
0001f0 2f da ee bc f4 8b f2 3a b7 7c 81 be 02 a5 4f 3e
       -0.029156772 0.0018504844 -0.25290462 0.20277789

model.2.weight f4 [64, 128]
000000 bd 60 a1 bd be 30 1b 3c 05 cc 4a bd 56 7a 44 3c
       -0.078797795 0.00947207 -0.049510974 0.011992058
000010 c8 15 5e bd bf b0 b7 bd 7a 45 8a bd 32 55 06 be
       -0.05421999 -0.089692585 -0.06751533 -0.13118437
000020 57 01 52 bd 3f 45 ab bd 4d 51 b8 3d 7c ea a1 3d
       -0.05127081 -0.08362817 0.08999882 0.079060525
000030 9e a6 8a bb 57 36 15 3c b5 1a dd bc b1 2b 9c bd
       -0.004231288 0.009107194 -0.026990274 -0.07625521
000040 1e 3b cf bc 7f 83 30 3d d6 c8 d5 bc 3d 1c a7 3d
       -0.025296744 0.043094154 -0.026096743 0.08159683
000050 cf c2 c9 3d b7 4d 5f bd 27 0a 97 bd 16 b1 0c 3d
       0.0985161 -0.054517474 -0.07374983 0.03434857
000060 3e bb 68 bd 47 2b a3 3b 95 d3 9d 3d 64 6a 59 bd
       -0.056819193 0.0049795243 0.07706372 -0.053079978
000070 74 66 fe 3c ca fc cf 3c 1d e7 97 bc b3 e0 fe 3c
       0.031054713 0.025389094 -0.01854282 0.031113004
000080 71 f3 6c bb a7 ec 9e bd fd 3c 08 bd 71 e0 a3 bc
       -0.0036155845 -0.077599816 -0.033261288 -0.020004483
000090 49 8c 2b bc b8 bd f7 3c 08 d8 4f 3d 11 4b 5c 3d
       -0.010470458 0.030241832 0.050743133 0.053782526
0000a0 8f d1 f0 3b a2 fc c1 bb 5b 2a d6 3b c1 f7 23 3d
       0.0073492 -0.0059200088 0.006535811 0.0400312
0000b0 8a 60 92 3c c2 52 62 3c 12 2b 75 3d 94 f3 8b 3d
       0.017868299 0.013813676 0.05985553 0.06833568
0000c0 07 fa 5e 3a cf 39 66 3d ce 9b 24 3d 05 3d ad 3b
       0.0008505885 0.056207474 0.04018765 0.005286815
0000d0 0c 2e 14 ba e7 86 2a bd b3 15 4b 3c f3 7d bf 3c
       -0.00056526135 -0.04163256 0.01239531 0.023375487
0000e0 72 eb a3 3c b2 27 7e 3d 6f 5a 80 3d 38 ec 87 3d
       0.02000973 0.062049575 0.06267249 0.06636852
0000f0 c3 6e 98 3c dc 66 15 bd 2b ca ae 3c d9 23 b2 bc
       0.018607503 -0.036475047 0.021336636 -0.02174561
000100 ee 09 bb bd 1a 59 8b 3d 52 96 6c 3d 6e 4e 81 bd
       -0.09132753 0.06804104 0.057760544 -0.063137874
000110 a0 11 bb bd fe 1e 92 bd 7d 2d 82 bd 90 1c 62 3d
       -0.09134221 -0.071348175 -0.063563325 0.05520302
000120 a5 03 31 bd c4 48 55 bd ac 27 49 bd d6 34 a8 bb
       -0.043216366 -0.052071348 -0.0491101 -0.0051332517
000130 eb 54 9f bd 1b 87 43 3c d0 86 98 3d 65 92 9b 3d
       -0.07779869 0.011934067 0.074475884 0.07596282
000140 2d aa 6e bd 67 0f 76 3d b0 74 24 bd 79 42 33 bd
       -0.05826776 0.060073283 -0.040150344 -0.043764565
000150 fe e3 65 3d 6c 9d a8 3d 34 2a 21 3d 17 e9 8e 3d
       0.056125633 0.08233151 0.03934689 0.06978052
000160 02 1e 86 bd 5c 1b 83 bc 37 cf 86 bc 09 b7 d2 bc
       -0.06548692 -0.016004257 -0.01645623 -0.025722044
000170 c8 28 12 39 1e 96 78 bd 99 66 e9 bb 1e d4 92 bd
       0.00013938837 -0.060690038 -0.0071228263 -0.071693644
000180 45 58 e7 3b 9c 1c 81 3c 9e 70 0f 3d 64 aa b3 3d
       0.007060083 0.015760712 0.03501951 0.08772734
000190 42 5a 8d 3c 74 a8 37 3d 17 fc 7b 3d 4b ee 45 bd
       0.017254952 0.044838384 0.06151971 -0.048322957
0001a0 7d 22 b5 bd 76 05 8c bd 04 15 1b bd 5f 14 9a 3a
       -0.08844469 -0.06836979 -0.03786184 0.0011755339
0001b0 f9 76 d0 bc d9 6f c7 3c b6 25 a1 3d 62 8c b0 bd
       -0.025447356 0.024345325 0.07868521 -0.08620526
0001c0 d3 88 0f 3d 17 48 4e 3d 1f 51 a2 3d 90 35 29 3d
       0.035042595 0.05036172 0.07925629 0.041310847
0001d0 7e 6d b9 bc ef 03 47 bd 1b 92 6f 3c 5f d5 d4 3d
       -0.022635218 -0.048587736 0.014622237 0.1039226
0001e0 7d 69 88 3d b5 17 52 bd f3 ab 94 3d 75 f2 81 3d
       0.06660745 -0.05129214 0.07259359 0.06345073
0001f0 12 1a 8a bd 1f 8d 74 3d 97 48 02 3d 25 26 a6 bd
       -0.06743254 0.059704896 0.03180751 -0.08112744
000200 c7 ab ac 3d ee 61 d3 3c a5 0c 9a bc 95 b9 7c 3d
       0.084312014 0.025803532 -0.018804858 0.061700422
000210 8e ed 14 bd 02 ef 10 3d 6a 44 f1 3b 72 d3 e2 bb
       -0.036359362 0.035384186 0.007362892 -0.006922179
000220 53 33 90 bc 59 29 8c 3d cd 1f c0 3d 12 4e 93 3d
       -0.017602598 0.06843824 0.093810655 0.07192625
000230 b0 3c ef ba 63 a4 8d bd 3a d0 3c 3d 60 0e c6 bd
       -0.0018252339 -0.0691612 0.046097018 -0.096707106
000240 44 b8 13 3d 3e 7a 5e 3c 06 fe 71 bd e0 35 9e bd
       0.0360644 0.0135789495 -0.059080146 -0.077251196
000250 47 12 1e 3d bf ee 9b 3d e9 f5 91 bc ff 1d 1c 3c
       0.03859165 0.076138966 -0.017817454 0.009528636
000260 66 42 63 3c d1 32 5c bd ff 25 78 bd db b4 86 3d
       0.013870811 -0.0537594 -0.06058311 0.06577464
000270 6c 61 94 3d 83 b7 48 3d e4 56 97 bd d1 27 9a 3d
       0.07245144 0.049003135 -0.0738962 0.075271256
000280 ad dd aa bd 04 82 d6 3a 99 a4 04 bd 46 4c 60 bd
       -0.083430625 0.0016365652 -0.032383535 -0.05476024
000290 97 17 d2 3d 2f 81 93 3d f9 3f b2 bc 4a fb 16 bd
       0.10258406 0.07202374 -0.02175902 -0.03686074
0002a0 2c ec 8f 3d cd bd 30 bc 24 20 c4 bd a2 aa 6f bd
       0.07027468 -0.0107874395 -0.09576443 -0.058512338
0002b0 ee 10 dd 3c 88 96 b8 bc 1b ee 7f bd 1d 13 9f 3d
       0.026985612 -0.022532716 -0.062482934 0.077673174
0002c0 71 ab 45 bc 6f 5c 1d 3d eb 4b 6a bb 14 c0 0c 3d
       -0.012064801 0.03841823 -0.0035750817 0.034362867
0002d0 f4 39 16 bd f7 9e 0d bd 16 06 36 bb 15 48 83 3d
       -0.036676362 -0.03457543 -0.0027774624 0.06410233
0002e0 cd ef a4 bd 3c fc 27 3d 01 c1 2d bd 67 c6 46 bd
       -0.08053551 0.041012034 -0.04242039 -0.048529055
0002f0 a4 ba df 3c fb 48 30 3d 9d a2 76 39 61 97 2f bc
       0.027310677 0.04303835 0.00023520966 -0.010717244
000300 06 75 ec 39 4b bf 5a ba 18 ee b2 3d aa 8a e5 3c
       0.00045100617 -0.0008344545 0.08736819 0.028020222
000310 32 ba 73 bd 23 7c 03 bd 5d c6 eb 3b 8f 61 88 bd
       -0.05950374 -0.032100808 0.0071952776 -0.06659233
000320 59 f0 8a 3d 01 d5 c7 3d ef 6a 11 bd 76 18 76 3c
       0.06784124 0.09757424 -0.03550237 0.01502048
000330 f8 2d db bc bf 66 71 bd 7e 00 96 bc 1a 21 78 3d
       -0.026755318 -0.058935877 -0.018310782 0.060578443
000340 23 f4 ee 3b 32 32 c5 bc 41 00 4c 3d 9f 5c 71 bc
       0.007292287 -0.024071787 0.04980493 -0.014731555
000350 9d 8c f0 3c aa 42 46 bd 92 b4 ad bc 3e bd 38 3d
       0.029363925 -0.04840342 -0.021204267 0.04510235
000360 4a 0b f9 bc 3f 10 b7 3d 97 ad a2 3c c3 e4 ac 3d
       -0.03040089 0.089386456 0.019858165 0.0844207
000370 d0 56 b0 3c ae 9d 9f 3c 52 ea 8a bd 5e 5a f7 3c
       0.02152577 0.019484367 -0.06782974 0.030194458
000380 65 08 1d bd 3a 1b c6 3c ae 93 75 3d e3 18 57 3c
       -0.038338084 0.024182905 0.05995529 0.013128492
000390 dd 46 9c 3d 6e 63 77 3d 52 7f 9e 3d 94 ee 1f bd
       0.076307036 0.060397558 0.07739128 -0.039045885
0003a0 40 c1 80 bc 55 49 93 3d 0b 1f 35 bd 73 6e 10 3d
       -0.015717149 0.07191721 -0.044219058 0.035261583
0003b0 39 e3 bb 3d 01 38 09 3c 54 40 72 bd c2 ad 06 3b
       0.09174199 0.008375169 -0.05914338 0.0020550345
0003c0 74 02 1b bd 4e 27 a7 3d 0e 00 87 bc 15 ac 94 3d
       -0.037844136 0.08161794 -0.016479518 0.072593845
0003d0 fb bc 10 bd 94 a8 38 3d 38 3d e5 3c 8f 6f 47 3d
       -0.035336476 0.045082644 0.027983293 0.048690375
0003e0 0c 0f c6 3d 40 93 81 3d ed 1c 4b 3d c2 1c 99 bc
       0.09670839 0.06326914 0.049588133 -0.01869047
0003f0 55 fa e7 bb 28 ac 6b 3d cd 71 a0 3d 7c e2 bb 3d
       -0.0070794025 0.057537228 0.07834206 0.09174058

model.2.bias f4 [64]
000000 26 d1 53 bd d4 9c b6 3d 13 3a 3f 3d 78 af ad bd
       -0.05171313 0.08916631 0.046686243 -0.08480734
000010 85 07 87 bd 7f 92 c7 3d 97 04 a0 bc ec 0d 99 3c
       -0.06593231 0.09744739 -0.019533439 0.018683396
000020 16 8e db bc f9 3c b0 3c 67 5a 65 3b 8a ca df 3b
       -0.02680115 0.021513449 0.003499651 0.0068295645
000030 f5 4d eb bc cd 48 d4 3d 35 bf 8f bd 75 6c 36 3d
       -0.028723696 0.10365448 -0.07018892 0.044537026
000040 88 61 1e 3c fa 4a 71 bc c6 24 49 3c 5c b2 00 3b
       0.009666808 -0.014727348 0.012276834 0.001963756
000050 4a bf 58 bc a5 3f 0e bd 20 39 a9 3d cb 73 e2 bc
       -0.013229201 -0.034728665 0.08262849 -0.027643105
000060 85 cc 4c bd 54 43 3c bd 4c 94 51 bd d4 6a 5f 3d
       -0.049999733 -0.045962647 -0.051166818 0.05454524
000070 d1 bc 87 3d 8a 95 d6 bc 55 4e 42 3d 14 60 e1 bc
       0.06627811 -0.026194353 0.047437984 -0.027511634
000080 cc 03 31 bd d4 d4 fc bc 06 e9 b5 3d 24 60 cb 3c
       -0.04321651 -0.030863203 0.08882336 0.024826117
000090 2a b4 2f 3d 6d c3 bc 3c 87 46 e2 bc 78 ad c2 3d
       0.042896427 0.023042405 -0.02762152 0.09505743
0000a0 4c cc 07 3d d8 30 0b bc 33 34 61 bd 13 65 a8 3d
       0.033153817 -0.008495532 -0.05498142 0.082224034
0000b0 73 fb 90 bd a5 f0 85 3a 09 f7 7e bd 79 1d f6 bc
       -0.0707921 0.0010218812 -0.06224731 -0.03004335
0000c0 78 b2 54 3d 95 21 93 3d 2c 23 21 bd 8f 51 94 bd
       0.051928014 0.0718414 -0.039340183 -0.072421186
0000d0 0d ee 83 3d ae 37 eb bc 13 79 05 bd 27 91 5e 3d
       0.06441889 -0.028713074 -0.03258617 0.054337647
0000e0 52 f6 1b 3d 28 b7 b1 3b 53 61 33 3d 2d 18 47 bd
       0.038076706 0.0054234453 0.043793987 -0.04860704
0000f0 08 8d 91 3d 8c c9 a6 bb f7 42 19 bd 9d 95 fb 3c
       0.07106978 -0.005089944 -0.03741738 0.03071099

model.4.weight f4 [1, 64]
000000 bf 67 1a bc d3 03 b9 3d 26 2e 25 bd c0 02 ec ba
       -0.009424149 0.090339325 -0.040327214 -0.0018006191
000010 49 99 54 3c 84 be 8b 3c be b5 ce bd 85 fd 04 3e
       0.012975999 0.017058618 -0.10093258 0.12987335
000020 db 70 16 3d c1 80 1a 3e 40 01 db 3d 4f 32 e6 3d
       0.03672872 0.15088178 0.10693598 0.11240064
000030 22 c1 70 3d 7e 25 d8 3d 6f 1f d4 3d 29 06 af 3d
       0.058777936 0.10554026 0.10357558 0.08546097
000040 7f 75 eb bd 05 fe c1 3d 0d 3b e8 bd e5 fe a5 3d
       -0.1149702 0.094722785 -0.11339388 0.08105258
000050 bd 4d ba bd 61 40 bf 3a e1 0f 49 3d 1e bf 8f bd
       -0.09096859 0.001459133 0.04908741 -0.070188746
000060 01 ce 19 3d 44 13 8f 3d 0c e0 cd 3d f0 5b 32 bd
       0.037549976 0.069860965 0.10052499 -0.04354471
000070 00 ba ad 3d be 0e da bd 87 2a 75 bc e7 69 db 3d
       0.08482742 -0.10647343 -0.014963753 0.10713559
000080 29 6e d4 bd 2e c8 19 3c 45 70 93 3b aa da ab bd
       -0.10372574 0.009386105 0.0044994676 -0.08391316
000090 a1 08 af 3d 2d 6e d0 bd d3 76 72 3d 14 22 21 3d
       0.08546568 -0.10177264 0.05919535 0.03933914
0000a0 24 8e 45 bd e7 91 d1 3c db 65 d5 3d de 69 94 3d
       -0.04823126 0.025582267 0.10419818 0.07246755
0000b0 78 2e 19 3e 43 1d 69 3c f3 98 63 bd 69 33 40 bd
       0.14959133 0.014228168 -0.055565786 -0.04692403
0000c0 c3 a8 83 bd dd 16 a5 3c 18 95 ee bd f7 b6 cc bd
       -0.06428673 0.020152504 -0.11649531 -0.09995835
0000d0 3c 87 53 3c 9b bf f2 bd af ee d0 3d d3 05 8f bd
       0.01291066 -0.11852952 0.10201775 -0.06983533
0000e0 19 63 b1 bd d9 6e ab 3d 4c 1e a0 bd 0a a2 c0 bd
       -0.086614795 0.08370752 -0.07818279 -0.094059065
0000f0 5a 99 de 3d 07 f5 c7 bd 33 06 6d bd c6 8b c1 3d
       0.10869093 -0.09763532 -0.05786724 0.09450488
