Single layer Working model/tuner_model.pt (torch, 43248 bytes, 5 tensors)

model.0.weight f4 [128, 12]
000000 34 5a 85 be 23 12 1d bd 70 01 f5 bd 66 12 64 3e
       -0.26045382 -0.038347375 -0.11963165 0.22272643
000010 8a 1e bb bd 26 8a 0e 3d 46 50 0c 3e bb 34 85 3e
       -0.09136684 0.034799717 0.13702497 0.26016793
000020 66 22 02 3e 85 52 06 be 3c e8 3f 3e 64 b3 71 3e
       0.12708434 -0.13117416 0.18740934 0.23603588
000030 d9 98 41 3e ec 70 2c be 10 eb 64 3e 0f 4b 9e be
       0.18905963 -0.16839951 0.22355294 -0.3091664
000040 e0 10 48 bd 9a b1 1c 39 fe 17 6c 3e 1c 60 7e 3e
       -0.04884422 0.00014943481 0.23056027 0.2484135
000050 ea 31 0c 3e 9e ef c7 bd 16 72 c7 3d 2f b5 08 3d
       0.13690916 -0.097625 0.09738557 0.033375915
000060 cc 01 46 3c 52 18 fc 3d ff c4 29 3e dc 53 65 3e
       0.012085389 0.12309326 0.16579054 0.22395271
000070 c5 07 64 3e cb e9 59 3e b2 a0 13 be 57 04 3a 3d
       0.22268589 0.21280591 -0.14416769 0.045414295
000080 82 51 3b be cc 64 89 bd fa 6a 5e be a1 24 7e be
       -0.18292812 -0.067086786 -0.21720496 -0.2481866
000090 9b bb d9 bd b5 d0 6a be c1 c2 eb 3c 3a 76 73 3d
       -0.10631486 -0.22931178 0.02877939 0.05943892
0000a0 5c 6d a0 be 19 08 31 3e 05 70 2e 3c 7c 81 a1 3c
       -0.31333435 0.17288245 0.010646825 0.019715063
0000b0 8d 7e 26 be d8 18 a1 3d 8c 90 5d 3d 85 97 42 3e
       -0.16259213 0.07866067 0.05409293 0.19003113
0000c0 03 cd e7 bd 39 22 93 3e 31 b3 f7 bd 26 98 8b bd
       -0.113184 0.28737047 -0.12094725 -0.068161294
0000d0 82 0a 56 3e 46 1f 7a be 2c d3 88 3e ea d4 b2 bd
       0.20902446 -0.24425992 0.2672361 -0.087320164
0000e0 95 d8 b8 3b b1 bd a0 be cc 21 51 3e 6e 6e 10 bd
       0.005641053 -0.31394723 0.20423049 -0.035261564
0000f0 d8 f3 89 be b4 c2 92 be b8 fb 0e be 47 d8 b9 bd
       -0.2694385 -0.28664172 -0.1396321 -0.09074455
000100 a5 23 82 3e bd d3 32 3e f2 8c 5b be 62 b4 80 be
       0.2541782 0.17463584 -0.21440485 -0.2513762
000110 e8 5d fd bd aa ed 1b 3c 13 67 61 3d f4 5a 8c 3e
       -0.12371427 0.009517113 0.05502994 0.27413142
000120 d7 23 49 bd 35 c2 fe 3d c9 e4 d8 bc 28 23 cf bd
       -0.049106445 0.12439386 -0.02647628 -0.101141274
000130 f3 23 bb be c1 c8 98 3e 6e dd df 3d 31 5a cb bd
       -0.36550865 0.29840663 0.10930906 -0.09929312
000140 39 19 ce be a8 29 9a bd 0c 62 8e bd ac 47 4f be
       -0.40253618 -0.075274765 -0.06952295 -0.20242184
000150 7b 16 32 be da d1 0f 3e bb 1e 07 3e 9e a1 da bd
       -0.17391388 0.14044896 0.13195316 -0.10675357
000160 c1 26 9f bd ce de 05 be f1 50 b0 bb 05 1b ce bd
       -0.077710636 -0.13073274 -0.0053807427 -0.10063747
000170 2f f0 f8 bd c0 0a 3e ba 29 7d f1 3d a4 98 9f be
       -0.121551864 -0.00072495267 0.117914505 -0.31171143
000180 fc ed 53 3e d0 72 85 3e 4c 25 b6 3d 7e 60 46 3e
       0.20696253 0.26064157 0.088938326 0.19372746
000190 73 6b 5e bc 96 c9 7c 3e e6 f3 03 be 48 8d 0a 3c
       -0.013575423 0.24686274 -0.12886009 0.008456536
0001a0 05 ac 5d be 59 db 22 be 81 52 71 3d 0f 88 55 3e
       -0.21647651 -0.15903987 0.058916572 0.20852683
0001b0 14 77 68 be f4 1a 80 be 42 5c 16 be 29 e4 a1 bd
       -0.22701675 -0.25020564 -0.14683631 -0.07904846
0001c0 3e 52 45 3e da 03 b0 be b5 02 cb bd 7b fc 9c 3d
       0.19269654 -0.34377939 -0.09912626 0.07665344
0001d0 da f8 60 3e bc 0b 1d 3e 3f 3c 8c 3e 5f 0a 6b bd
       0.2196993 0.15336508 0.27389714 -0.057382938
0001e0 3b 7e 35 3d 5c d4 03 3e 37 a4 37 3e ab 2d 51 be
       0.044309836 0.12873977 0.17933737 -0.20427577
0001f0 c5 b4 47 3d d9 42 5c 3c b5 4c 4b 3d 7c e4 88 be
       0.04875638 0.013443672 0.0496337 -0.2673682
000200 a4 ed 9d be 34 79 f5 bd 82 82 72 be 67 72 fd 3d
       -0.30845368 -0.11986008 -0.23682597 0.12375336
000210 21 fa 22 be 29 af 12 be 4e 01 43 be 34 8f 92 be
       -0.15915729 -0.14324631 -0.19043466 -0.2862488
000220 fd f6 83 be 7d d0 f7 3b 36 e0 8d bc 5a cb 9a bd
       -0.25774375 0.0075626955 -0.017318826 -0.075583175
000230 df 12 75 be 34 da 2b 3d b5 67 80 3e a4 c9 40 3e
       -0.2393298 0.04195614 0.25079122 0.1882692
000240 b2 e2 5f 3e f2 96 1c be 4e a2 05 be 72 8e 49 3e
       0.21863821 -0.15291956 -0.13050196 0.19683245
000250 1e 86 85 be cd c2 52 3e 1c d4 8a be 5e 46 23 bd
       -0.26078886 0.20582123 -0.27114952 -0.03986203
000260 71 6d 55 3c c2 e0 31 3e 99 b8 21 3e 10 24 5e 3e
       0.013026581 0.17370895 0.15793075 0.21693444
000270 29 e6 00 be ad 11 43 3e 22 57 57 3b 72 74 80 3e
       -0.12587799 0.19049712 0.0032858332 0.2508884
000280 14 09 80 3e a7 30 46 be 85 cd 75 be 44 f0 77 3e
       0.25006926 -0.19354497 -0.2400418 0.24212748
000290 21 6e 88 be 63 7d 93 bd 14 35 65 bc 4c 09 9e bd
       -0.26646522 -0.0720165 -0.013989706 -0.07716617
0002a0 43 d3 72 3e eb 3d 92 bd af 14 61 be 46 d1 9d bd
       0.23713402 -0.07140716 -0.21980546 -0.07705931
0002b0 76 9f 59 be 6f 6f d0 3c 1c 7b 61 3e 73 d7 2c be
       -0.21252236 0.02544376 0.22019619 -0.16879062
0002c0 c6 0a 5c 3e fa ad e7 bd 37 4c c8 bc fb 7a e8 bd
       0.21488485 -0.1131248 -0.024450405 -0.11351582
0002d0 18 23 85 be 06 1a a0 3c f3 ac 2b 3d 36 50 d5 3d
       -0.26003337 0.019543659 0.041912984 0.1041569
0002e0 1c 06 a3 3e b3 6b 69 3e b3 8a 1e be 63 cf c3 bb
       0.318406 0.2279499 -0.15482597 -0.00597565
0002f0 1a e3 ee 3d a9 5b e0 3d ff f7 86 be 55 8f 84 be
       0.1166441 0.10954983 -0.2636108 -0.25890604
000300 5b 0d f4 bd a8 2c 00 bd 4c b2 6b 3b ef 36 8c 3d
       -0.1191661 -0.031292588 0.0035964428 0.06846415
000310 80 d1 87 3e 9f ef 47 be 14 83 c2 ba 4e 72 ac 3d
       0.26527023 -0.19525002 -0.001484009 0.084202394
000320 ce 20 8b be 92 6c 8c bd 3f a1 4e 3e 2c 8f d2 bc
       -0.27173465 -0.06856646 0.20178698 -0.025703035
000330 dd 5e 72 be f1 78 79 be a1 b4 8a 3d cf 92 a6 be
       -0.23669 -0.24362542 0.067727335 -0.3253388
000340 6c 48 9e 3e d0 86 44 bd 95 8a e8 bd 9a 0c d4 bd
       0.30914629 -0.04798013 -0.113545574 -0.10353966
000350 55 a6 a3 be 69 39 27 3e dd 03 80 bd b8 49 af be
       -0.3196284 0.16330494 -0.06250737 -0.3423593
000360 5a 69 7c 3e 61 b9 5e 3b 68 8c b1 bc 79 2e ec bd
       0.24649563 0.0033985006 -0.021673396 -0.115323015
000370 9a 90 1f be 52 95 4d 3d b3 08 a5 bd 33 aa 64 be
       -0.15582505 0.05019123 -0.080583 -0.22330551
000380 98 0e c1 bd dd 6d 60 3d a2 2d be 3d 9a 3d 8c be
       -0.09426612 0.054792274 0.092860475 -0.27390748
000390 d5 93 39 bd 46 ae 4e 3e 44 eb 90 3e c1 34 6c 3e
       -0.045307 0.20183668 0.28304493 0.23066999
0003a0 ba 8f bc 3d af fe 34 be 15 de 8a bd 41 27 3b be
       0.09207101 -0.17675279 -0.0678064 -0.18276693
0003b0 2a 58 85 3e 29 35 b6 bd c2 22 36 be 9c 85 55 be
       0.26043826 -0.08896858 -0.17786697 -0.20851749
0003c0 4f 73 f2 3d 48 cd 8c be ef 2e 53 bd f3 58 51 be
       0.118383996 -0.27500367 -0.05155843 -0.20444088
0003d0 6b af 6b 3d c7 92 20 3d 1f 9a 4d be 06 b0 73 3e
       0.05754034 0.039202478 -0.20078324 0.23797616
0003e0 39 6b 90 be 6e cd 77 3e 82 69 8a bd 04 6b 40 3e
       -0.28206804 0.24199459 -0.06758405 0.18790823
0003f0 b9 e3 31 3c 12 5b 83 3e 42 9c 1a 3e f7 c3 01 be
       0.010857516 0.2565542 0.1509867 -0.12672411

model.0.bias f4 [128]
000000 91 8e 15 3e df 29 1a be b5 d0 03 bd 7d ff 97 3e
       0.14605166 -0.15055035 -0.03218146 0.2968711
000010 a1 23 23 3e c2 b4 30 bc 86 b8 c3 be 20 03 79 be
       0.1593156 -0.0107852835 -0.38226718 -0.24317598
000020 2d 32 3e be 0b 08 72 bc 81 32 82 be c8 50 0f be
       -0.18573828 -0.014772425 -0.25429156 -0.1399566
000030 88 c4 29 3e 72 9e 00 3e 21 c5 93 3e 87 89 92 bd
       0.16578877 0.12560442 0.28861335 -0.071551375
000040 ab 0a 06 3d bf 6a 23 bd 44 c4 ae 3d 4e 0d 62 3e
       0.032725018 -0.039896723 0.085335284 0.22075388
000050 08 13 22 3d 5c 31 3d 3e b2 5d 5a 3e f9 fc 40 3e
       0.03956893 0.1847586 0.21324804 0.18846501
000060 22 7e 87 be 01 cb a7 bc 60 e2 13 be a7 36 89 3e
       -0.2646342 -0.020482542 -0.14441824 0.2679951
000070 14 50 43 bc 39 4a 3c 3e 87 f4 08 be 2e 08 95 bd
       -0.011920948 0.18387689 -0.1337453 -0.07276951
000080 7c e9 c9 3d 2d 4c 98 3e 3f a7 8f 3e 36 39 1b 3e
       0.09858987 0.29745618 0.28057286 0.15158543
000090 34 26 dc bc a6 63 72 bd 0d ca 2d be 64 c1 20 be
       -0.026873685 -0.059177063 -0.16971608 -0.15698773
0000a0 92 48 57 bd 68 08 d7 bd ef ac aa bd fa e7 82 be
       -0.052559443 -0.1049965 -0.08333766 -0.2556761
0000b0 b6 96 3f 3e d3 f9 44 be 0d be 85 3e 41 20 55 be
       0.18709835 -0.19235925 0.2612156 -0.20813085
0000c0 02 f1 a0 bc b4 50 4e be c3 9a 94 3e 12 f2 77 be
       -0.019646171 -0.20147973 0.29024324 -0.24213436
0000d0 d8 11 89 3e a7 b6 97 bd 77 4d 97 be 0c 10 3e be
       0.26771426 -0.07407885 -0.29551288 -0.18560809
0000e0 7b 79 02 be 07 5b 94 3c 10 02 98 be 9d ce e3 3d
       -0.12741654 0.018109811 -0.29689074 0.11123393
0000f0 34 c3 06 3c 5a 18 7e be bd 33 1c 3c 8b 6b 6c be
       0.008225251 -0.24813977 0.00953382 -0.230879
000100 78 14 32 bd fa c3 1b 3d a1 8e 8a 3e 22 b1 9a 3e
       -0.04347655 0.038028695 0.27061942 0.30213267
000110 d6 a1 8b 3e 72 dc 80 3e fb 63 8e 3e fe de fd bd
       0.2727191 0.25168186 0.27810654 -0.12396048
000120 a6 81 85 bd cc fd 3d bd e4 60 1f be 31 52 a1 3e
       -0.06518869 -0.046384618 -0.15564305 0.3150802
000130 4e b0 01 be 91 d4 84 3e 9e 65 8e be 2b 79 ac bd
       -0.12664911 0.25943425 -0.27811903 -0.084215485
000140 d4 f2 43 3e 9a d7 8b be 77 2d 29 3d 8a 5e 94 3e
       0.191356 -0.27312928 0.041303124 0.28978378
000150 5e 6a 05 be e5 82 02 3b 71 9e 0f be 93 87 9f 3e
       -0.13028857 0.0019914445 -0.14025284 0.31158122
000160 a3 5b c1 3d 04 0a ac bd 5c 5c 86 3e bd a3 13 3c
       0.094413064 -0.08400348 0.2624234 0.009011206
000170 91 e1 6d be fd 59 f9 bc 36 70 f3 be 01 6a e6 3d
       -0.23230578 -0.030438418 -0.47546548 0.112506874
000180 01 c6 47 be 06 51 ee bd 88 31 3d 3e 26 5a 54 be
       -0.19509126 -0.11636548 0.18475926 -0.20737514
000190 b4 c7 f5 3c f2 14 ee bd 82 f0 7c 3e cc d9 38 be
       0.030002452 -0.11625089 0.24701121 -0.18051833
0001a0 53 5e 40 3e cf 6b 54 bd 6a dd 59 bb 08 87 84 3d
       0.18785982 -0.051860627 -0.0033243545 0.06471068
0001b0 09 57 83 be 9e 3f 89 3e 31 39 51 3e ae 71 61 be
       -0.2565234 0.2680635 0.20431973 -0.22016022
0001c0 a4 59 c2 3d 1a 48 93 3e 20 3d c0 bd 00 da d6 3b
       0.09489754 0.28765947 -0.09386659 0.0065567493
0001d0 19 d6 1d 3d 5a 88 40 3e e6 23 2b 3e 57 41 23 bd
       0.038534258 0.18802014 0.16712913 -0.039857235
0001e0 01 8f 0b bd 2a 4b 95 3d 3f 2e 82 3e ef 61 38 be
       -0.034071926 0.07289727 0.25425908 -0.18006109
0001f0 87 3a 6d be 37 c7 80 be fc f9 59 3e 3b d6 72 3e
       -0.23166858 -0.2515199 0.21286768 0.23714535

model.2.weight f4 [64, 128]
000000 4c 94 84 3d ae 57 9e bd a7 5a 03 3d ea 88 0f 3d
       0.06473598 -0.07731567 0.032068875 0.03504268
000010 f9 00 dc 3d 00 7d 8c bd 8f 87 7c 3c dd c3 d9 bd
       0.10742373 -0.06859779 0.015413179 -0.10633061
000020 49 24 09 bd c0 78 00 bd be 41 da bd 87 bf ee bd
       -0.03348187 -0.031365156 -0.106570706 -0.11657625
000030 28 46 2d 3d eb e2 19 bd 95 4d 87 3c b1 2b 39 bd
       0.042303234 -0.03756992 0.016516486 -0.045207683
000040 c8 59 5e bd 7b 67 94 3d 86 5b 64 bd 17 27 e0 3b
       -0.05428484 0.072463 -0.055751346 0.0068405974
000050 4f c1 58 3d 48 19 2b 3d b0 4c 9d bd e7 c0 87 3d
       0.05291873 0.041772157 -0.076806426 0.0662859
000060 be 6b 36 3d 5d 57 db 3c 1a 10 5d 3d 47 a7 31 3c
       0.044536345 0.026775056 0.053970434 0.010843105
000070 28 74 1f 3d 89 0f 92 3d 9d a0 2e 3d e9 6a 74 bd
       0.038929135 0.07131869 0.04263364 -0.05967227
000080 3f f9 e3 bb 20 88 ee 3d ea 8b c2 3d eb cf 93 bd
       -0.0069572027 0.116470575 0.09499343 -0.072173916
000090 be 20 46 be 12 31 cb 3c af 49 7d 3d 3f 3a 77 3b
       -0.19348428 0.024803672 0.06183785 0.0037723926
0000a0 2f 35 1c 3d 35 fb b4 bc a1 67 45 3d ad 5c eb bd
       0.038136657 -0.022092441 0.04819453 -0.11492286
0000b0 56 62 ab 3d 3a aa 7d bd af fc a2 3c e2 5e 0b be
       0.083683655 -0.06192992 0.01989588 -0.13610414
0000c0 f0 84 f4 bc 11 93 0d 3d 03 c0 8d 3d a0 a3 f8 bd
       -0.029848546 0.03456408 0.06921389 -0.12140584
0000d0 d1 6f 02 bd b0 3d c7 bd 1e 40 24 3d f4 de fc bc
       -0.031844918 -0.09728563 0.04010021 -0.030868031
0000e0 5a b4 b4 bc f6 37 bb 3c aa f2 35 be 88 dd 87 3d
       -0.022058655 0.022853833 -0.1776835 0.066340506
0000f0 c7 1f 59 3d 64 24 94 bd cb 62 2a bd e2 76 78 bd
       0.05300882 -0.072335035 -0.041598123 -0.06066025
000100 02 a5 a7 bc 88 10 ed bc 8e 7f b9 bb 17 bb c3 3d
       -0.020464424 -0.028938547 -0.0056609577 0.09557169
000110 b0 89 c0 3d 8f 8e 86 bd 07 34 91 3b f3 cb 59 be
       0.09401262 -0.0657016 0.004431251 -0.21269207
000120 98 34 3a 3b a8 bc 97 ba 75 0a 04 bd 88 50 50 bd
       0.0028412696 -0.001157661 -0.032236535 -0.05085805
000130 4b e3 87 bd 2a 64 eb 3d 55 23 22 be ab d9 ca bd
       -0.066351496 0.11493714 -0.1583379 -0.09904798
000140 e4 82 12 bc 4b b7 9a bd 6e 86 43 3b 67 e4 8d 3c
       -0.00894234 -0.075544916 0.0029834765 0.017320825
000150 bf de 4c 3c 33 3e 78 bd 75 fe 01 be ff fd eb 3d
       0.012504279 -0.060606193 -0.12694724 0.11523055
000160 d9 ff 5c bd df 43 6e bc db b1 77 3c 0b b0 ed ba
       -0.053954933 -0.014542549 0.015118088 -0.001813413
000170 d0 e6 46 bd a1 bb 8b bd 3b 8d c9 bd 03 6e 95 3d
       -0.048559964 -0.06822897 -0.09841391 0.07296374
000180 44 59 a6 3c 9d d1 d2 bd ee 03 45 3e af 69 18 be
       0.020306237 -0.10293887 0.1923978 -0.14884065
000190 49 8a 07 bd 43 1b bc bd c6 d8 15 3e 83 65 a2 bb
       -0.033090863 -0.09184887 0.14633474 -0.004955949
0001a0 b5 79 73 bb 2f 80 66 3c f8 16 16 b8 a9 53 b9 bb
       -0.00371514 0.014068647 -3.5784178e-05 -0.005655725
0001b0 ea 6c 96 bd e1 5b bd bd 67 ff eb bc 16 91 9b bd
       -0.073449925 -0.0924604 -0.028808309 -0.07596032
0001c0 78 bb 87 bc f3 be 2d 3d 80 43 35 3d 2c 6f 4e 3d
       -0.016568884 0.04241843 0.044253826 0.05039899
0001d0 db bd 8f bd b4 52 8f 3d 31 23 21 3d 84 20 7b bc
       -0.07018634 0.06998196 0.0393402 -0.015327577
0001e0 27 6c 20 3d 33 b1 9c 3d f5 38 df bc c4 23 0a be
       0.039165642 0.076509856 -0.027248839 -0.13490206
0001f0 88 44 91 3c 78 16 03 3a 85 7c 97 3d eb f6 b5 3d
       0.017732874 0.00050006015 0.07396797 0.088849865
000200 fc ca cb bd 1f d6 2b 3d 4e f2 81 3d d9 ec d0 bd
       -0.099508256 0.04195225 0.06345044 -0.10201425
000210 27 49 b0 bd b5 a2 fc 3c 73 a1 81 3c 48 31 44 3d
       -0.08607703 0.030839304 0.015824055 0.04789856
000220 0e 97 87 3d da cf 44 3d da a0 a8 bc cc 28 39 3c
       0.06620608 0.048049785 -0.020584513 0.011301231
000230 de db aa bd 07 bf 2c bd 62 a4 1f 3d 98 c2 20 3c
       -0.083427176 -0.042174365 0.038975127 0.00981202
000240 19 ee 87 3c e2 72 a6 bd 0c f3 3d bd c9 e9 4f 3d
       0.016593026 -0.08127381 -0.046374366 0.050760064
000250 a2 30 9d bd 73 59 af bd 19 8d cf bd 73 1f c4 bd
       -0.076752916 -0.08561983 -0.10134334 -0.09576311
000260 d0 c7 98 bd a6 27 be bd e4 d8 86 3d 73 ff 24 3c
       -0.07459986 -0.09284906 0.06584337 0.010070669
000270 8b e6 9d bc 3c 34 96 bc 84 ed bd 3c 65 d8 28 3d
       -0.01927497 -0.018335454 0.023184545 0.041221995
000280 27 c3 cc bb dc 96 07 3d 9e 15 a8 bd 55 ee 08 bc
       -0.00624885 0.033102855 -0.08207248 -0.008357604
000290 33 02 c6 bc 1e 88 1f bd bb 93 e7 3c 54 a2 ae bc
       -0.02417097 -0.03894817 0.028268686 -0.021317638
0002a0 27 c5 0c 3d 42 db bc bd 29 e8 5f 3d f6 7e a0 bd
       0.034367707 -0.092215076 0.054664765 -0.07836716
0002b0 c6 33 4c 3d 04 11 95 bc 07 e6 88 3d 1b e8 5b 3d
       0.049854062 -0.01819659 0.06684499 0.05368815
0002c0 22 a9 c1 bd 7d 98 12 bd 43 91 81 bb 2f 4d 8e 3d
       -0.09456088 -0.035789955 -0.003954084 0.06948315
0002d0 69 3f 14 bc af 61 71 bc af 2a d8 bb c0 c5 99 3c
       -0.009048321 -0.014732762 -0.006596885 0.018771052
0002e0 a5 dc c6 bd e5 b3 42 3d d7 88 5f bc 98 a1 42 3d
       -0.09710053 0.047534842 -0.013643465 0.04751739
0002f0 77 5a 19 3d a7 d1 d1 bc 4e d3 94 bc 1e e5 d6 bb
       0.03743979 -0.025612665 -0.018167164 -0.0065580746
000300 90 b9 28 bd 90 5b 05 bd 5f 8a b9 bd 66 52 e8 bc
       -0.04119259 -0.032558024 -0.09059595 -0.028359603
000310 e3 f8 0d 3c 06 05 5c 3d 6e c0 a5 bd 16 bc 3f bd
       0.008665296 0.05371573 -0.08093344 -0.046810232
000320 38 04 85 bd 13 50 f6 bc 81 a8 38 3d 3b ce b3 3b
       -0.06494945 -0.03006748 0.045082573 0.005487231
000330 da 37 98 bc 4b 9a f6 3c d1 06 b7 3c 5f 2f 19 3d
       -0.01858132 0.03010287 0.022342118 0.037398692
000340 1f ef 14 bd bb 79 a8 3c bc 5e 6b bd bc 0b 8b 3d
       -0.036360856 0.020565858 -0.057463393 0.067893475
000350 0e e0 be bd 60 7d 90 bd 15 cc a3 3b 08 25 be 3c
       -0.09320079 -0.070551634 0.0049986937 0.023211017
000360 db 5e 83 bd 76 7e 1b 3c 16 80 b2 3c 9b fc a0 bd
       -0.064145766 0.0094906 0.021789592 -0.07860681
000370 d6 ee 07 3d 0b 0f 46 3d 1d e3 5f 3d 56 b9 bc bd
       0.033186756 0.04835419 0.05465995 -0.092150375
000380 b6 45 40 3d 51 67 d8 3c 18 73 5f 3b 4d 85 bb bd
       0.04694148 0.026416453 0.00340957 -0.091562845
000390 ef da d0 3b 03 c0 37 3d 8c 68 75 3d 0c e0 29 bc
       0.006373755 0.04486085 0.059914157 -0.010368358
0003a0 91 15 82 3d b5 3c 76 bd a5 da c9 bd 50 e7 92 3c
       0.0635177 -0.06011649 -0.09856156 0.017932564
0003b0 1a fe 8c 3c 28 ad 70 bd 4a 61 f3 3c 04 85 29 3c
       0.017211009 -0.058758885 0.029709477 0.010346655
0003c0 f4 9f ac bd 8f bd 86 3d e2 af 51 bd 7d cf 35 3d
       -0.08428946 0.06579124 -0.051193126 0.04438733
0003d0 78 93 9e 3c ff dc c9 bc 6c b2 c6 bc 01 eb 49 bd
       0.019357428 -0.024641512 -0.024255 -0.049296383
0003e0 ce 30 10 bd 38 56 22 3d b3 65 0c 3c ec 77 8c 3c
       -0.035202794 0.039633006 0.008569169 0.017147027
0003f0 19 00 cd 3c 4a 62 85 bd 67 8e 68 bc e5 13 a9 bd
       0.02502446 -0.06512888 -0.014194108 -0.08255748

model.2.bias f4 [64]
000000 6a 8a 04 3e b3 ac 9a 3b 63 2e 55 bd d0 f4 42 3d
       0.12943426 0.0047202944 -0.05204619 0.047596753
000010 01 8d 3b 3d 77 98 0f 3d 07 97 a8 bd d6 3a 38 3d
       0.04578877 0.03505751 -0.08231931 0.044977985
000020 ea df 93 3d 3b f6 bd bd 53 e5 28 bd 57 2d c5 3d
       0.072204426 -0.0927548 -0.041234326 0.096277885
000030 ab 43 9f 3d b5 c5 23 bd 4f 34 91 bd 0e b8 06 bd
       0.077765785 -0.03998347 -0.07090055 -0.032890372
000040 ab dd 9f ba 98 fd 0b bd 99 e0 0f 3d 06 8c a5 bc
       -0.00121968 -0.034177393 0.035126302 -0.02020837
000050 f4 87 47 3d 81 5d 66 3d eb 79 99 bc ae 2f 9e 3c
       0.04871364 0.056241516 -0.018734893 0.019309845
000060 8c 6e 9b 3d f2 c1 a4 bb 32 ba 01 bd 29 52 0e 3d
       0.075894445 -0.005028003 -0.03167171 0.034746323
000070 e1 79 6e 3d f6 b8 87 bc 16 db 47 3d 75 f1 66 3b
       0.0582217 -0.016567688 0.04879292 0.0035239134
000080 39 94 3d bd 12 67 19 bc 16 33 b6 bd 52 5f 3e bc
       -0.046283934 -0.009362953 -0.088964626 -0.011619406
000090 93 db 63 bb 18 29 a8 bc c0 6d dc 3c e0 53 73 3d
       -0.0034768328 -0.020527408 0.026907802 0.05940616
0000a0 89 65 d5 bc 52 7b b3 3d e1 76 c7 b8 ea b2 29 3d
       -0.026049392 0.08763756 -9.5112024e-05 0.04143039
0000b0 9d 1c 35 3b 8f 65 dc 3d 50 8a de bc 1c 22 60 3c
       0.0027635463 0.10761558 -0.027165562 0.013680007
0000c0 33 c1 73 3d 68 d4 40 3d bd 15 15 3c ad c2 e5 bc
       0.05951042 0.047077566 0.009099421 -0.02804693
0000d0 8e 8f 93 3b db ff ba 3d e7 da a0 bc 14 1b 71 3d
       0.004503197 0.09130832 -0.01963563 0.058863714
0000e0 e6 28 54 3c 19 ae 84 3d a8 0c e3 bc 4e c9 ef b9
       0.012949204 0.06478519 -0.027715996 -0.00045735616
0000f0 99 99 39 3d 08 0f 48 3d 91 ea ce 3a 40 8d 7c bc
       0.045312498 0.04884246 0.0015786459 -0.015414536

model.4.weight f4 [1, 64]
000000 c2 03 a7 3d fb 4b 5b bd ff 1a bf bd d0 b1 29 3e
       0.081550136 -0.053539257 -0.09331321 0.16571736
000010 72 25 49 3d 2d d0 54 3d e4 3c 90 bd 6f 82 80 bd
       0.049107976 0.051956344 -0.07042864 -0.06274878
000020 ea 15 a1 3d 18 d0 86 bd ef 4f 3c 3d 28 4c 63 3d
       0.07865508 -0.065826595 0.045974668 0.05549255
000030 bb 47 63 3d 20 ae 44 3d 66 02 85 bd 62 c7 11 be
       0.05548833 0.04801762 -0.06494598 -0.14236215
000040 80 86 a9 bd e9 18 f6 3d 17 4b 10 bd 08 fb cb 3d
       -0.08277607 0.1201647 -0.03522786 0.0995999
000050 a9 88 57 bd 50 6b dd 3d ae f7 65 3d 4d 9e ba 3d
       -0.052620564 0.10811484 0.05614441 0.09112225
000060 d9 3e 06 3e c1 37 da bd cb 31 5b bd e6 ec db 3d
       0.13109912 -0.106551655 -0.053514283 0.10738544
000070 3c 05 aa bd 87 78 98 3d 79 ae 1f bc 0d c9 c9 bd
       -0.0830178 0.07444864 -0.009746187 -0.098528005
000080 19 0d 67 3d a8 9d 02 3e 47 16 c2 bc b8 42 cb bd
       0.056408975 0.12755454 -0.023692263 -0.09924835
000090 b5 e2 6c bc 9e 9c 4f 3d b2 ec b0 bd a4 97 df bd
       -0.014458348 0.05068647 -0.08638896 -0.10917595
0000a0 cd 8b aa 3c c3 d6 0f 3e 3d 71 c8 3d 17 48 76 3b
       0.020818615 0.14046769 0.097872235 0.003757959
0000b0 5c 85 09 3e 36 38 ed 3d 63 0b c1 bd b6 13 c5 bd
       0.13429779 0.11582987 -0.09426 -0.096229
0000c0 54 2d 10 bd 74 82 d2 3d 8d c8 b4 bd d0 98 ba bd
       -0.03519948 0.10278788 -0.088273145 -0.09111178
0000d0 64 6e 4d 3d 47 a2 c7 3c f4 f9 8d bd 19 6c 37 3e
       0.050154105 0.024369372 -0.069324404 0.1791233
0000e0 d7 9f 0e 3e e0 76 7e 3d 55 ea 8e 3d 18 bc 87 3d
       0.13928162 0.062125087 0.06978289 0.06627673
0000f0 64 18 5f bd d5 36 ec 3d de 56 00 3d 4c 5b 19 bc
       -0.05446662 0.11533896 0.031332843 -0.009360146
