Single layer Working model/tuner_model.pt (torch, 43248 bytes, 5 tensors)

model.0.weight f4 [128, 12]
0	0x3c17b9d3	0.009260613
1	0xbcc32d7b	-0.023825398
2	0xbe5d733b	-0.21625988
3	0xbe12db8f	-0.14341567
4	0xbe376e5e	-0.17913195
5	0x3e11bf27	0.14233075
6	0x3e45c632	0.19313887
7	0xbe59a743	-0.21255212
8	0x3df9bc60	0.12194133
9	0xbd9d7715	-0.07688729
10	0xb9f70669	-0.00047116287
11	0xbe8620f2	-0.2619701
12	0x3da988c9	0.08278043
13	0xbe5ddda5	-0.21666582
14	0xbd9f3cef	-0.07775294
15	0xbe5637e7	-0.20919763
16	0x3e1c753a	0.15279093
17	0xbe216ef7	-0.15764986
18	0x3e20bbf3	0.15696697
19	0xbe0b556d	-0.13606806
20	0x3d32d6b7	0.0436618
21	0x3d96e077	0.07367032
22	0x3e755751	0.2395909
23	0x3d99b763	0.07505681
24	0xbe8bd3f5	-0.27310148
25	0x3e8002d5	0.2500216
26	0x3d5b76bf	0.053580042
27	0x3dc3c764	0.09559515
28	0x3c4f84e4	0.012665961
29	0x3d1fdaa0	0.039026856
30	0x3d6cc440	0.057804346
31	0xbe85debc	-0.26146495
32	0xbe753316	-0.23945269
33	0x3e696515	0.22792466
34	0x3d59548e	0.053059153
35	0xbe271053	-0.16314821
36	0x3e80e36f	0.25173518
37	0xbc291564	-0.010320041
38	0xbc7ceb3c	-0.015436944
39	0xbe874d32	-0.26426083
40	0xbd7c1210	-0.061540663
41	0x3dacd286	0.08438592
42	0x3e45776d	0.19283839
43	0x3e5fa44a	0.21840015
44	0xbe03143e	-0.1280069
45	0x3df78ea5	0.12087754
46	0x3dcd7464	0.100319654
47	0xbd930822	-0.071792856
48	0xbd59787b	-0.053093415
49	0xbda526a8	-0.08064014
50	0x3e3cb370	0.18427825
51	0xbe37a74e	-0.17934915
52	0x3e850ac2	0.2598477
53	0x3e81c204	0.25343335
54	0xbe34cc83	-0.1765614
55	0x3daaab1f	0.0833342
56	0x3de79c2d	0.11309085
57	0x3ea2a0be	0.31763262
58	0x3e7d55ba	0.24739733
59	0x3bff2943	0.007786901
60	0xbd06969a	-0.03285847
61	0x3c85ad23	0.01631791
62	0x3e2dc2bf	0.16968821
63	0x3e5ba403	0.21449284
64	0x3dc52ae6	0.09627323
65	0x3ce11953	0.027477896
66	0x3de6c2b5	0.11267606
67	0xbe315b55	-0.17319997
68	0x3e0a72d6	0.13520369
69	0xbe0f3caf	-0.13987993
70	0x3e13a3a2	0.1441789
71	0xbd1545e4	-0.036443606
72	0xbe40edf2	-0.18840769
73	0x3e8d48c4	0.27594578
74	0x3e609d81	0.21935083
75	0xbe5bb35d	-0.2145514
76	0xbe054482	-0.13014415
77	0x3db15495	0.08658711
78	0xbea11adb	-0.31465802
79	0x3d496857	0.04917177
80	0x3e88b913	0.267037
81	0xbe28d3b6	-0.16487011
82	0x3c89d8d0	0.016827017
83	0xbe340814	-0.17581207
84	0xbd01a4ef	-0.031651434
85	0x3d75e775	0.060035188
86	0xbe1151f6	-0.14191422
87	0x3ce9cd6b	0.028540334
88	0x3e297de8	0.16551936
89	0x3e4b9bc4	0.19883639
90	0x3cac7439	0.021051513
91	0xbe142dcd	-0.14470597
92	0xbe076f16	-0.1322597
93	0x3e3ca4dc	0.18422264
94	0xbc82f8a9	-0.015987711
95	0xbd86e372	-0.065863505
96	0x3e87bb8d	0.26510277
97	0xbe15f2e2	-0.14643434
98	0x3d4df6a8	0.050284058
99	0xbd133b35	-0.035945136
100	0xbe43f314	-0.19135696
101	0x3d590045	0.052978773
102	0x3e6dc224	0.2321859
103	0xbdebea1e	-0.11519264
104	0x3e833ce1	0.25632384
105	0xbb76cdb7	-0.0037659237
106	0xbdaba920	-0.083818674
107	0x3dcc6752	0.09980644
108	0xbe32967c	-0.17440218
109	0x3e0aa740	0.13540363
110	0x3d13f875	0.03612562
111	0x3cf3a549	0.0297419
112	0x3e5a39df	0.21311139
113	0xbe68815b	-0.22705595
114	0x3e5f4d7d	0.21806903
115	0x3e19dcea	0.15025678
116	0x3dae2a2d	0.08504138
117	0x3c6814b6	0.014165094
118	0x3e611719	0.21981467
119	0xbdf81ec2	-0.121152416
120	0x3cbd48a0	0.02310592
121	0x3d1f669c	0.038916215
122	0xbc11e968	-0.008905746
123	0x3e8013a0	0.25014973
124	0xbe7a91ce	-0.24469683
125	0xbe8d2370	-0.275661
126	0x3d46d49d	0.048542608
127	0xbe0c791e	-0.13718078
128	0xbeb68c91	-0.3565412
129	0x3e8d6d70	0.27622557
130	0xbdf5f44c	-0.120094866
131	0xbe07a626	-0.13246974
132	0x3d05b565	0.032643694
133	0xbe0489c4	-0.12943178
134	0x3deae19b	0.11468812
135	0xbdc99aff	-0.09844016
136	0x3e0d787c	0.13815492
137	0x3dbef530	0.093241096
138	0x3e791d3b	0.24327557
139	0x3e69d3bc	0.22834677
140	0xbdddc7bb	-0.10829111
141	0x3e5f7495	0.21821816
142	0xbe812e1c	-0.2523049
143	0xbe6bcb07	-0.23026668
144	0x3d2cdf7d	0.042205323
145	0xbe873a14	-0.26411498
146	0xbde235d6	-0.11045425
147	0x3d434275	0.0476708
148	0xbe8c7724	-0.27434647
149	0x3c5a5f61	0.013328404
150	0xbe8709b5	-0.26374593
151	0x3e24fef3	0.1611288
152	0x3b157f2a	0.0022811391
153	0xbe65d224	-0.22443444
154	0x3e2d7b48	0.1694156
155	0xbdc18fea	-0.094512776
156	0xbe2ef8e6	-0.17087135
157	0x3dd33f2c	0.103147835
158	0x3c3b34d6	0.011426171
159	0xbe86c3e0	-0.26321316
160	0xbc87af05	-0.016562948
161	0xbe033455	-0.12812932
162	0x3e109b4a	0.14121738
163	0xbe72e9ae	-0.23721954
164	0x3e85d093	0.26135692
165	0x3cf19356	0.0294892
166	0x3e841f0c	0.25804937
167	0xbcdf2cc2	-0.027243022
168	0x3e4fd0da	0.20294514
169	0xbdac606f	-0.08416831
170	0x3ceddeb8	0.029036865
171	0x3d674c07	0.05646899
172	0xbd2c533e	-0.042071573
173	0xbe14b238	-0.1452111
174	0x3e212f40	0.1574068
175	0xbd274b4f	-0.040843304
176	0xbe420d50	-0.18950391
177	0xbe73493b	-0.23758404
178	0xbd629b32	-0.055323787
179	0xbdaedd02	-0.08538248
180	0x3cd95cd1	0.026533516
181	0x3d87f9ed	0.066394664
182	0xbe8ea1a0	-0.27857685
183	0x3d98e4e6	0.07465534
184	0x3e16945b	0.1470503
185	0x3e0035bb	0.12520497
186	0xbe2c1cf9	-0.16807927
187	0x3cf528b1	0.02992663
188	0xbe129562	-0.14314798
189	0xbbf45d0d	-0.0074573816
190	0xbce06c15	-0.027395288
191	0x3e8fff00	0.28124237
192	0xbcce8790	-0.025211126
193	0xbc196430	-0.0093622655
194	0xbe43abd4	-0.19108516
195	0xbdb66033	-0.08905067
196	0xbddb4a13	-0.10707488
197	0x3cae0a4f	0.02124515
198	0xbddad86b	-0.1068581
199	0xbd4d4703	-0.05011655
200	0xbc90e471	-0.017687054
201	0x3cc5ab88	0.024129644
202	0xbd886dac	-0.06661543
203	0xbe2f8131	-0.17139126
204	0x3dfe8ee2	0.124295965
205	0x3e730b2e	0.23734733
206	0x3d810320	0.06299424
207	0x3e1117ae	0.1416919
208	0xbddc5e6a	-0.107601956
209	0x3e8205ca	0.25395042
210	0x3e46b383	0.19404416
211	0xbe42de6f	-0.19030164
212	0x3e3e3274	0.18573934
213	0xbe519c8a	-0.20469871
214	0x3cb9724b	0.022637507
215	0x3daf0bac	0.08547148
216	0xbe7537b0	-0.23947024
217	0x3e01b8f4	0.1266821
218	0xbe7024e8	-0.23451579
219	0xbe1c7b37	-0.15281378
220	0x3e403b31	0.1877258
221	0xbc94f2e2	-0.018182222
222	0x3e6f2e37	0.23357473
223	0x3e1083dd	0.14112802
224	0xbe00dbec	-0.12583894
225	0xbe02182e	-0.12704536
226	0xbe2c4028	-0.16821349
227	0x3e676fc9	0.22601236
228	0xbe889a0f	-0.26680037
229	0x3e78c9c1	0.24295713
230	0x3e638218	0.22217596
231	0xbda59805	-0.08085636
232	0x3dd8847e	0.10572146
233	0xbe903d5d	-0.28171816
234	0x3e51959a	0.20467225
235	0x3d9efe6a	0.077633694
236	0x3e470bf3	0.19438152
237	0x3e8c94e1	0.27457336
238	0x3e41b4c4	0.18916613
239	0x3e3c2b3e	0.1837587
240	0xbe36d2b8	-0.1785382
241	0xbe3ff8e9	-0.18747295
242	0x3e876e85	0.26451507
243	0x3e4ee6d0	0.20205235
244	0xbc6c4c2a	-0.014422456
245	0xbb8aa010	-0.0042305067
246	0xbe21b64b	-0.15792195
247	0x3ca29158	0.019844696
248	0x3c0b1e89	0.008491167
249	0xbe3ca79f	-0.18423317
250	0x3e859724	0.26091874
251	0x3dc4585d	0.095871665
252	0xbdc9c49b	-0.09851953
253	0x3d87cedc	0.06631252
254	0x3db3d928	0.08781654
255	0xbe844986	-0.25837344

model.0.bias f4 [128]
0	0xbe7ebba8	-0.24876273
1	0x3def9f8b	0.11700352
2	0x3d902590	0.070384145
3	0xbe0adb01	-0.13560106
4	0x3e9080fc	0.28223407
5	0x3dad3a04	0.08458331
6	0xbe645d85	-0.223013
7	0x3cb9828c	0.022645257
8	0x3e5e3e12	0.21703365
9	0x3e5b0fd6	0.2139276
10	0x3d85157e	0.0649824
11	0x3e63f5d2	0.22261742
12	0x3e8c6be5	0.27426067
13	0xbe4bc7a2	-0.19900373
14	0xbe800806	-0.2500612
15	0x3e626f83	0.22112851
16	0x3cc890d0	0.024483114
17	0xbd548cdf	-0.051892158
18	0xbd272e24	-0.040815488
19	0x3e00120a	0.12506881
20	0xbe31f4da	-0.1737856
21	0x3e3dd741	0.18539144
22	0xbe1f13da	-0.15534917
23	0x3e8056df	0.25066277
24	0x3de77a93	0.11302676
25	0xbdf36672	-0.11884774
26	0x3d5c29a7	0.05375066
27	0xbde5d42a	-0.11222108
28	0xbd45cb5e	-0.04828965
29	0x3db536ff	0.0884838
30	0x3dc76982	0.09736921
31	0x3e0b4f5c	0.13604492
32	0x3e068ba4	0.13139206
33	0xbe20cbd2	-0.15702751
34	0xbe7c548a	-0.24641624
35	0xbd82e35f	-0.06391024
36	0x3dfa4871	0.12220848
37	0x3dcaac77	0.09896176
38	0x3de9293e	0.113848194
39	0xbe1c49f0	-0.1526258
40	0xbcf343cb	-0.029695412
41	0x3da93fc1	0.08264113
42	0xbd6f9215	-0.058488924
43	0x3e7fd015	0.24981721
44	0x3e5f33b7	0.21797071
45	0xbe741113	-0.23834638
46	0x3e13ed2a	0.1444594
47	0xbda060b9	-0.078309484
48	0xbe903811	-0.28167775
49	0xbdafa5b9	-0.08576531
50	0x3d44d5f9	0.048055623
51	0xbda975cc	-0.08274421
52	0xbe5cf571	-0.21578003
53	0xbda7b337	-0.081884794
54	0x3e80d705	0.25164047
55	0x3e960fad	0.29308835
56	0x3e5799c8	0.21054757
57	0x3dbac4e0	0.09119582
58	0x3c46bf37	0.01213055
59	0xbe7d43ba	-0.24732867
60	0xbe559737	-0.20858465
61	0x3e1c3300	0.1525383
62	0xbdc27b0a	-0.09496124
63	0xbe8ba82b	-0.2727674
64	0xbde2c70d	-0.11073122
65	0x3dcf75b5	0.10129873
66	0x3e14cde4	0.14531666
67	0x3e7d6110	0.24744058
68	0xbd66cb36	-0.05634614
69	0xbe4f602b	-0.20251529
70	0xbe1793ef	-0.14802526
71	0xbe8bc707	-0.27300283
72	0xbcd8dd83	-0.026472813
73	0xbe2e6966	-0.17032394
74	0xbd4c8ff1	-0.04994196
75	0xbe88466a	-0.26616222
76	0x3e8211bd	0.25404158
77	0xbe91b36a	-0.28457195
78	0x3e3ce27d	0.18445773
79	0xbd1468fb	-0.03623293
80	0x3e53ddc3	0.20690064
81	0x3d9b3364	0.07578161
82	0xbe88307d	-0.26599494
83	0x3d06a8a7	0.032875683
84	0x3c282d5d	0.010264722
85	0xbd9d32eb	-0.076757275
86	0xbe5e3b5d	-0.21702333
87	0xbd42ed53	-0.04758961
88	0xbe179a61	-0.14804985
89	0xbe745180	-0.23859215
90	0x3e831204	0.25599682
91	0xbce6b1c4	-0.028160937
92	0x3ced30f2	0.028954003
93	0xbe985295	-0.29750505
94	0xbca5d671	-0.020243855
95	0xbe6eebff	-0.23332213
96	0x3d69d5e4	0.057088748
97	0x3e0fc1a0	0.14038706
98	0xbe709f69	-0.2349831
99	0x3d1fe56e	0.03903716
100	0x3e6e343b	0.23262112
101	0xbda226cb	-0.079175554
102	0xbe041b85	-0.12901123
103	0x3e3741a0	0.17896128
104	0x3d1ee05a	0.038788177
105	0xbd8ffb23	-0.070303224
106	0xbe5aede5	-0.21379812
107	0xbd73f60d	-0.059560824
108	0xbdd8beec	-0.105832905
109	0x3e8244a4	0.25442994
110	0xbe2eb277	-0.17060266
111	0x3dcfab49	0.10140092
112	0xbe8630a4	-0.26208985
113	0xbe5cce82	-0.21563151
114	0x3e75fbbc	0.2402181
115	0x3e46d4cf	0.19417118
116	0x3e94f1e2	0.29090792
117	0xbe23e374	-0.16004735
118	0x3d8a4fb5	0.06753484
119	0x3d7b27be	0.061317198
120	0xbe793158	-0.2433523
121	0xbe892206	-0.2678377
122	0x3df3bc42	0.11901142
123	0xbe9258cc	-0.28583372
124	0xbe589f18	-0.2115444
125	0x3e833866	0.25628966
126	0xbe51ba14	-0.2048114
127	0xbd16dcac	-0.036831543

model.2.weight f4 [64, 128]
0	0x3cfcbba9	0.030851202
1	0xbd7f0eb5	-0.062269885
2	0x3c6a81c9	0.01431317
3	0xbc872ca5	-0.01650078
4	0xbc6fdb78	-0.014639728
5	0x3d6ea500	0.058262825
6	0xbd0bf2fa	-0.034167267
7	0x3d832173	0.06402864
8	0xbc1786a7	-0.009248412
9	0xbd4a08be	-0.049324743
10	0x3ceb52cf	0.02872601
11	0x3c9642ac	0.018342339
12	0x3cd67286	0.026177656
13	0x3d6215e6	0.055196665
14	0xbd5ba36c	-0.053622648
15	0xbdafdbae	-0.085868225
16	0x3d8bf605	0.06834034
17	0xbd92fc67	-0.07177048
18	0xbd6f9978	-0.05849597
19	0xbd01140e	-0.031513266
20	0x3cda632d	0.026658619
21	0x3cb33b19	0.021878766
22	0x3d068bb9	0.032848094
23	0xbd58e44c	-0.052952096
24	0x3d8970f5	0.06710998
25	0xbda18d9d	-0.07888339
26	0x3da81b5e	0.08208345
27	0x3da502bb	0.080571614
28	0xbd993cb5	-0.07482282
29	0x3caa1af3	0.020764804
30	0x3d04b444	0.032398477
31	0xbd1d6a80	-0.038431644
32	0xbd6dec50	-0.058086693
33	0x3d01f784	0.03173019
34	0x3bd210a5	0.0064106756
35	0xbd9d8c40	-0.07692766
36	0xbdab1213	-0.08353057
37	0xbd1ad211	-0.03779799
38	0xbd9e7756	-0.07737605
39	0x3d23d996	0.040002428
40	0x3d0c9dff	0.034330364
41	0x3d0eccb7	0.0348632
42	0xbd5c5af7	-0.05379769
43	0xbdc69740	-0.096968174
44	0xbd658012	-0.05603034
45	0x3d480231	0.048830215
46	0x3d1efd3d	0.038815726
47	0xbd46fbac	-0.048579857
48	0x3dfb0125	0.12256078
49	0xbc8ff1a7	-0.017571284
50	0x3ce97027	0.028495861
51	0x3d686285	0.05673458
52	0xbd4f2145	-0.050568838
53	0x3d0fcbc0	0.03510642
54	0x3c85eae7	0.016347362
55	0xbd8def91	-0.06930459
56	0xbb5b257b	-0.0033439088
57	0x3d0ad517	0.033894625
58	0x3c737c8d	0.014861238
59	0xbd60ae3f	-0.054853674
60	0xbda40ebc	-0.08010623
61	0x3d6e499a	0.05817566
62	0x3d9c92e4	0.07645205
63	0xbd555607	-0.052083995
64	0x3d1ef86a	0.038811125
65	0xbd10badb	-0.03533445
66	0x3d97e3b1	0.074164756
67	0x3d8f0e2d	0.06985126
68	0x3c36d929	0.011160173
69	0xbd1df061	-0.03855932
70	0xbdd72087	-0.10504251
71	0xbd511275	-0.051042993
72	0x3d987a7e	0.074452385
73	0x3b31f02e	0.0027151215
74	0xbd84a10e	-0.06476031
75	0x3cfaf5f3	0.030634856
76	0x3c43c8db	0.011949743
77	0x3d64be39	0.055845473
78	0x3d0d9a9f	0.034571286
79	0x3d9aac84	0.07552436
80	0x3d1b5e4f	0.037931737
81	0xbdbfd5ff	-0.093669884
82	0xbc0ce8f0	-0.0086004585
83	0xbc843401	-0.016138079
84	0xbcbaf57a	-0.02282213
85	0x3ccc1e25	0.024916718
86	0xbd39a34c	-0.045321748
87	0xbcf3c670	-0.029757708
88	0xbd434540	-0.047673464
89	0x3d920067	0.07128983
90	0x3cfe16ce	0.031016733
91	0x3c84dbd0	0.016218096
92	0x3d9a565b	0.07536002
93	0xbdcc8ee6	-0.09988193
94	0x3d6e3ae1	0.05816162
95	0xbd4817fc	-0.048851
96	0x3d676047	0.0564883
97	0x3dcd9868	0.10038835
98	0x3d6565cc	0.056005284
99	0xbc07eaaa	-0.008295694
100	0x3c87439c	0.01651173
101	0x3d4ec493	0.050480437
102	0xbd745891	-0.059654776
103	0xbd88783b	-0.06663557
104	0xbdb9fa04	-0.0908089
105	0x3d3fd45f	0.046833392
106	0xbd9e63fc	-0.07733914
107	0x3cf30bb3	0.029668665
108	0x3c86d930	0.016460985
109	0x3d9398fa	0.07206912
110	0xbc833e52	-0.016020928
111	0x3dbe1958	0.09282178
112	0xbd3ac1a3	-0.045594823
113	0x3d4e05e2	0.05029858
114	0x3d824c10	0.06362164
115	0xbd48e390	-0.049045146
116	0xbd181382	-0.03712798
117	0xbd95a758	-0.07307309
118	0x3d78768f	0.06065994
119	0x3bab81e7	0.0052339914
120	0xbd8e6d17	-0.06954401
121	0xbce01a67	-0.02735634
122	0xbc78444a	-0.015153
123	0xbd8f3e7d	-0.069943406
124	0x3d4760fb	0.048676472
125	0xbd043953	-0.03228123
126	0xbd4b3639	-0.049612258
127	0x3db8498d	0.08998404
128	0x3c3edb97	0.011649034
129	0x3dba0dbd	0.090846516
130	0x3d5403e7	0.051761534
131	0xbd676a0d	-0.056497622
132	0x3d6c47aa	0.05768553
133	0xbd3b3fcc	-0.04571514
134	0x3c10cb21	0.008837492
135	0x3d9efb00	0.07762718
136	0x3d370b67	0.04468861
137	0x3d97bb35	0.07408754
138	0xbdbec5ab	-0.09315046
139	0x3d93c9bf	0.072162144
140	0xbd78b039	-0.060714934
141	0x3d24b1b1	0.040208522
142	0x3d2e7339	0.042590354
143	0x3da52e86	0.08065514
144	0xbc087d66	-0.008330679
145	0xbcf332b6	-0.029687267
146	0x3c36fb8d	0.011168373
147	0xbc10cfcf	-0.008838608
148	0xbc14ab94	-0.009074111
149	0xbae5ed37	-0.0017542009
150	0xbd41b8e9	-0.047295485
151	0x3d63cae6	0.05561342
152	0x3caad66f	0.020854203
153	0xbd66b472	-0.05632443
154	0x3a44efa9	0.0007512519
155	0xbd62eefa	-0.055403687
156	0x3c5639fc	0.013075348
157	0xbbd7d507	-0.006586674
158	0x3d4df020	0.05027783
159	0xbd9dabb3	-0.07698765
160	0x3cd9a141	0.02656615
161	0xbcf5dd32	-0.0300127
162	0x3d9e555a	0.07731123
163	0x3d3b8d21	0.045788888
164	0xbcee7623	-0.029109066
165	0x3d8a8306	0.06763272
166	0xbd51365a	-0.051077224
167	0xbc554983	-0.013018015
168	0x3d6e1b4d	0.058131505
169	0xbd95ade0	-0.07308555
170	0x3d38a598	0.045079798
171	0xbd6f7798	-0.058463663
172	0x3dc84948	0.09779602
173	0xbd64fbf9	-0.055904362
174	0x3d538223	0.05163778
175	0x3d6f1c3c	0.058376536
176	0x3d9001eb	0.07031616
177	0xbdabfdce	-0.08398019
178	0x3dc13531	0.094339736
179	0x3d80f511	0.06296743
180	0x3b269a9a	0.002542174
181	0xbc594342	-0.013260664
182	0xbd43e973	-0.047830056
183	0xbdafdcf7	-0.085870676
184	0xbd04e209	-0.032442126
185	0xbd23b4a8	-0.03996721
186	0x3cc55c76	0.02409194
187	0x3a77fe3f	0.0009460188
188	0xbd0af20c	-0.03392224
189	0xbd5ce94d	-0.05393343
190	0x3bc9fe5b	0.0061643547
191	0x3bf63b61	0.0075144027
192	0xbc760983	-0.015016916
193	0x3d06c8b0	0.032906234
194	0x3d0fce9d	0.03510915
195	0x3d8649d3	0.065570496
196	0x3d83db07	0.064382605
197	0xbc1d4bbe	-0.009600578
198	0x3b98799f	0.0046531702
199	0xbdc9bcf1	-0.09850491
200	0x3c0e2915	0.008676787
201	0x3d141d71	0.03616089
202	0xbd579874	-0.052635625
203	0xbccde7b1	-0.025134893
204	0x3d88b5b2	0.06675281
205	0x3c953baf	0.018216936
206	0xbcc4834a	-0.023988385
207	0x3d893d4c	0.067011446
208	0x3da94f0c	0.0826703
209	0xbd01e8a6	-0.03171601
210	0xbbf4a5fd	-0.0074660764
211	0xbd956215	-0.07294098
212	0x3d83ac62	0.06429364
213	0x3d910cc1	0.07082511
214	0x3da23902	0.079210296
215	0xbccf9d75	-0.025343636
216	0xbcd85dc3	-0.026411897
217	0xbcb8aa77	-0.022542221
218	0x3c979bd4	0.018506922
219	0xbca72f5b	-0.020408323
220	0xbd3c6c01	-0.046001438
221	0x3c801720	0.015636027
222	0xbc86ac40	-0.016439557
223	0xbd98e0c2	-0.07464744
224	0x3db0b884	0.086289436
225	0x3d9efc69	0.07762987
226	0xbd295632	-0.041341968
227	0xbc856457	-0.016283197
228	0xbc5c9144	-0.013462368
229	0x3d87247d	0.065987565
230	0xbdb4908d	-0.088166334
231	0x3da64df6	0.081203386
232	0xbcf74ace	-0.030187037
233	0xbd27767e	-0.040884487
234	0x3d61a2d3	0.055086922
235	0x3cf77b99	0.030210303
236	0xbdbc2034	-0.0918583
237	0x3d255f16	0.040373884
238	0x3d6e16c9	0.0581272
239	0xbce17b71	-0.027524682
240	0xbd855e21	-0.06512094
241	0x3da76bd6	0.08174865
242	0xbc66329e	-0.014050154
243	0xbc229df0	-0.009925351
244	0xbc994338	-0.01870881
245	0x3d5121cf	0.051057633
246	0x3d12e170	0.035859525
247	0x396dfc26	0.00022696014
248	0xbdbb2ec4	-0.09139779
249	0x3dd321ba	0.10309167
250	0x3d9d9898	0.076951206
251	0xbda42d0b	-0.08016404
252	0x3d9387c5	0.0720363
253	0x3da91ac6	0.0825706
254	0xbcf6c87d	-0.030124897
255	0x3ca42467	0.02003689

model.2.bias f4 [64]
0	0xbcffa43d	-0.031206245
1	0xbd01fabf	-0.03173327
2	0x3d769bb6	0.06020709
3	0xbd702003	-0.05862428
4	0x3bd2fdcb	0.006438946
5	0x3d93d423	0.07218196
6	0x3c930c47	0.01795019
7	0x3d7fb978	0.062432736
8	0xbd93d9d8	-0.07219285
9	0xbd91a22f	-0.07111012
10	0xbd3d5274	-0.04622121
11	0x3c7d7fe0	0.015472382
12	0xbd5c14b3	-0.053730678
13	0xbbf8c8cf	-0.0075922976
14	0x3cb2b1ab	0.021813234
15	0xbbaafd9b	-0.0052182204
16	0x3d9d3439	0.07675976
17	0xbd6723f5	-0.056430776
18	0x3d56b5ea	0.05241958
19	0xbd4f074e	-0.050544076
20	0xbccd1341	-0.025033595
21	0xbc8f0d58	-0.017462417
22	0xbc93b0c8	-0.018028632
23	0x3cfba208	0.030716911
24	0xbb9958bc	-0.0046797674
25	0x3d3df702	0.046378143
26	0x3d1510f9	0.03639314
27	0x3c1751fe	0.009235857
28	0xbd387164	-0.045030013
29	0x3c2d7f33	0.010589409
30	0x3d170006	0.036865257
31	0xbcc770a6	-0.024345707
32	0xbd88b4a7	-0.06675082
33	0x3d7e44df	0.0620774
34	0xbb91fcfc	-0.004455207
35	0x3cc2715b	0.023735693
36	0x3d8177d6	0.06321685
37	0x3d5037dd	0.050834525
38	0xbb6a0fb7	-0.0035714933
39	0x3d8a5033	0.06753578
40	0x3d78d606	0.060750984
41	0x3d3f03ab	0.046634357
42	0x3d92a47d	0.0716028
43	0xbd31b37e	-0.043384068
44	0x3d49a2cb	0.049227517
45	0xbd6ddac5	-0.058069963
46	0xbd96bb57	-0.07359951
47	0x3da786db	0.081800185
48	0xbd9f0136	-0.07763903
49	0xbcbff360	-0.02343148
50	0x3dac7de2	0.08422448
51	0x3cdbb328	0.026818827
52	0x3d9a53a8	0.075354874
53	0x3d988a83	0.07448294
54	0xbd336daa	-0.043805756
55	0xbd84de50	-0.06487715
56	0x3d69b4e8	0.05705729
57	0x3d8e1a9a	0.069386676
58	0xbcfc4ecd	-0.030799294
59	0x3d850982	0.06495954
60	0x3dbf1801	0.0933075
61	0x3d8dc8fe	0.06923102
62	0x3ca67760	0.020320594
63	0xbb808295	-0.0039218166

model.4.weight f4 [1, 64]
0	0xbd001779	-0.031272385
1	0x3d93ecf8	0.072229326
2	0xbd2a2b01	-0.041544918
3	0x3de07a58	0.10960835
4	0x3cae8ce3	0.021307414
5	0x3c6b7f02	0.014373543
6	0xbb8dc825	-0.0043268376
7	0xbdb5c003	-0.08874514
8	0xbdb60fe2	-0.08889748
9	0xbdf64b84	-0.12026122
10	0xbd8d0cb7	-0.06887191
11	0xbdda58ea	-0.1066149
12	0x3d8d4518	0.06897944
13	0x3d161ec7	0.036650445
14	0x3d8941b9	0.06701989
15	0xbdc4bfdd	-0.096069075
16	0x3d9a1d60	0.07525134
17	0x3d52cbed	0.05146401
18	0x3d4aa931	0.04947776
19	0xbd82e07d	-0.06390474
20	0xbd5d73a7	-0.054065373
21	0x3df70f83	0.120635055
22	0x3daa8ae0	0.083272696
23	0xbd85eb80	-0.06539059
24	0xbdae362b	-0.085064255
25	0x3d37b288	0.044847995
26	0x3cc3f104	0.023918636
27	0xbd6ce409	-0.05783466
28	0xbd9ae9bc	-0.075641125
29	0x3dfe5078	0.12417692
30	0x3d5a1f8b	0.053252738
31	0x3c53242d	0.012887043
32	0xbda4fb1d	-0.080557086
33	0x3da3f701	0.08006097
34	0x3d812e19	0.063076206
35	0x3d1bf19d	0.038072217
36	0x3c6fafd6	0.014629325
37	0x3d84e9b9	0.064898916
38	0xbe0cd92b	-0.13754718
39	0x3dc48caa	0.09597142
40	0x3ca4693a	0.020069707
41	0xbdb6c442	-0.08924152
42	0x3c83e72e	0.016101446
43	0xbdc08d90	-0.09402001
44	0xbd09f098	-0.033676714
45	0x3d29c5f3	0.041448545
46	0xbd58fcac	-0.05297534
47	0x3cfd765e	0.030940231
48	0x3df64eaa	0.12026723
49	0x3da3ae07	0.079921775
50	0x3d8d1c20	0.0689013
51	0xbddcf716	-0.107893154
52	0x3d8cfe91	0.06884492
53	0x3dc7e45b	0.09760352
54	0x3dd0dcd7	0.10198372
55	0x3d1ebd84	0.038754955
56	0xbdba9d77	-0.09112065
57	0x3dfae8bd	0.122514226
58	0x3d6d7fd3	0.05798323
59	0x3d248aec	0.04017155
60	0x3db1983e	0.08671616
61	0x3ce54308	0.027986065
62	0xbdc71cfc	-0.09722325
63	0xba416453	-0.0007377315
